pytorch/mnist.pt (torch, 849903 bytes, 16 tensors)

layer1.0.weight f4 [16, 1, 3, 3]
0	0xbe2fe6de	-0.17177913
1	0xbe3a44c3	-0.18190293
2	0x3ec9ab0f	0.3938832
3	0xbe8c382a	-0.273866
4	0x3d387f00	0.04504299
5	0x3e80e2da	0.25173074
6	0x3dc8424f	0.09778272
7	0x3e922a49	0.28547886
8	0x3ea88a21	0.32917884
9	0xbd27717d	-0.040879715
10	0x3eb4e09e	0.3532762
11	0x3edf8973	0.43659553
12	0x3ea06884	0.3132974
13	0x3e020be8	0.12699854
14	0xbe9ca2d6	-0.30592984
15	0x3e21fc82	0.1581898
16	0xbe42c080	-0.19018745
17	0xbe3892ce	-0.18024752
18	0xbd47c8b1	-0.04877538
19	0xbe0ab4bb	-0.13545506
20	0xbe967596	-0.29386586
21	0x3f173791	0.5906916
22	0xbe30dbed	-0.17271395
23	0x3de22978	0.11043066
24	0x3de15b51	0.11003745
25	0xbf05fd3c	-0.5233953
26	0x3ca40d92	0.020026002
27	0x3d85475d	0.06507752
28	0x3f05a3e3	0.52203196
29	0xbefa3f3a	-0.48876363
30	0x3e80ceae	0.25157684
31	0x3eba1ce0	0.36350155
32	0x3e510bfd	0.2041473
33	0xbe8b56a2	-0.27214533
34	0x3e2c8b73	0.1685007
35	0x3c9b690a	0.018970985
36	0xbeec68b2	-0.46173626
37	0xbd2ad0fd	-0.041703213
38	0x3cf65098	0.030067727
39	0xbd3a8edc	-0.045546398
40	0xbcd65cfd	-0.026167387
41	0x3ee11312	0.43959862
42	0x3cd40d35	0.025885204
43	0xbe4d6631	-0.20058514
44	0xbee19e80	-0.44066238
45	0x3ef5915d	0.47962466
46	0x3ee629c8	0.44953752
47	0x3d0e6cda	0.034771778
48	0x3ed5eb7d	0.41781226
49	0xbecc8e67	-0.39952394
50	0xbe85e617	-0.26152107
51	0x3ebec499	0.37259367
52	0x3bcbc1ce	0.0062181717
53	0xbdc77842	-0.09739734
54	0x3e934b35	0.28768316
55	0x3ecbde58	0.39818072
56	0x3e90c753	0.28277072
57	0xbe3a9280	-0.18219948
58	0xbe2ee3e2	-0.17079118
59	0x3eef4f15	0.46740022
60	0xbe3de4bf	-0.18544291
61	0xbe6916d8	-0.2276262
62	0x3e9f526c	0.3111757
63	0xbdab693c	-0.08369681
64	0xbe98d214	-0.29847777
65	0x3e8d0a52	0.27546936
66	0x3e8782d3	0.26466998
67	0xbf040884	-0.51575494
68	0xbdc5d5af	-0.096598975
69	0x3ebc565c	0.36784637
70	0x3da36337	0.07977908
71	0xbe79fb98	-0.24412382
72	0x3eedf40c	0.46475255
73	0x3d00d676	0.031454526
74	0xbe8d1567	-0.2755539
75	0xbe4988fe	-0.19681165
76	0xbebf8443	-0.37405595
77	0x3e88c77d	0.26714697
78	0xbc5284e6	-0.012849068
79	0xbc54bf7b	-0.012985106
80	0x3ebe6105	0.37183395
81	0xbd61cf9d	-0.055129636
82	0xbe827460	-0.25479412
83	0x3e34f6f3	0.17672329
84	0x3e7db3a8	0.24775565
85	0xbeb88fef	-0.36047313
86	0x3f04608d	0.51709825
87	0xbe512bfd	-0.20426936
88	0xbe8309ab	-0.25593314
89	0x3e79ab6d	0.243818
90	0xbc8d413c	-0.01724302
91	0xbca1de11	-0.01975921
92	0xbd50ba08	-0.050958663
93	0xbebfa4e7	-0.37430498
94	0xbe87ecf0	-0.26547956
95	0x3da2b71c	0.079450816
96	0x3ecff567	0.40616915
97	0x3e8f14e3	0.27945623
98	0x3e83e60a	0.25761443
99	0x3ec38a4e	0.38191456
100	0xbea97a82	-0.3310128
101	0xbe41aab1	-0.1891277
102	0x3efae756	0.4900462
103	0x3edaadce	0.42710727
104	0x3ec9f894	0.39447463
105	0xbe44748a	-0.19185081
106	0x3e3b2a74	0.18277913
107	0xbca90f7e	-0.02063727
108	0xbd6c228d	-0.057650138
109	0xbdd628f8	-0.10457033
110	0xbec8b3fe	-0.39199823
111	0xbeacdccf	-0.33762214
112	0xbe500daf	-0.2031772
113	0xbd9bebba	-0.07613321
114	0x3ec6bcfd	0.38816062
115	0x3f260ed3	0.6486637
116	0x3d482fa1	0.048873547
117	0xbe14bfb5	-0.14526255
118	0x3f021358	0.50810766
119	0x3cdef740	0.027217507
120	0xbf07f6f3	-0.5311119
121	0xbdfcba58	-0.1234023
122	0xbee6c01e	-0.4506845
123	0x3e0107b9	0.12600602
124	0x3da6fb96	0.08153455
125	0x3bafb0a7	0.005361635
126	0x3e625d98	0.22106016
127	0xbe73ee1f	-0.23821305
128	0xbe6ddce1	-0.2322879
129	0x3e484afa	0.19559851
130	0xbd45f501	-0.048329357
131	0xbd9eac26	-0.077476785
132	0xbf174828	-0.59094477
133	0xbda9fc77	-0.08300107
134	0xbe7624e5	-0.24037512
135	0x3df80ae2	0.12111451
136	0x3e961928	0.29316068
137	0x3f0c42cd	0.5478943
138	0xbea031a1	-0.31287864
139	0xbd49e297	-0.04928836
140	0xbe1c0f83	-0.15240292
141	0xbe38bf0d	-0.1804163
142	0xbe21ff91	-0.15820147
143	0xbe6e7ff5	-0.23290999

layer1.0.bias f4 [16]
0	0xbe21c304	-0.15797049
1	0x3f1f76d2	0.6229068
2	0x3d984522	0.07435061
3	0xbe8af157	-0.27137253
4	0x3c2edda9	0.010672965
5	0x3f3c35f1	0.7351981
6	0x3ec08cd7	0.37607452
7	0xbccf03e4	-0.02527041
8	0xbd6004fe	-0.05469226
9	0x3e2c82c6	0.16846761
10	0x3d19fc20	0.03759396
11	0xbe4964c0	-0.1966734
12	0x3efe081d	0.49615565
13	0x3ec1f013	0.37878475
14	0xbe756830	-0.23965526
15	0xbe1ce49f	-0.15321587

layer1.1.weight f4 [16]
0	0x3fa28320	1.2696266
1	0x3fcd704a	1.6049893
2	0x3f2d44b3	0.6768295
3	0x3f4ff14a	0.8122755
4	0x3f438d8e	0.7638787
5	0x3fa09a18	1.2547026
6	0x3fcb8109	1.5898753
7	0x3f5e9258	0.8694205
8	0x3f4d9c2d	0.8031643
9	0x3f60719f	0.8767337
10	0x3f69661d	0.9117144
11	0x3fc0577c	1.5026698
12	0x3f4bc252	0.79593384
13	0x3f278555	0.65437824
14	0x3efbe6f4	0.4919964
15	0x3f6c390c	0.92274547

layer1.1.bias f4 [16]
0	0xbe6b961c	-0.23006481
1	0xbed93134	-0.42420352
2	0xbf267c62	-0.65033543
3	0xbe6b8653	-0.2300046
4	0xbf491771	-0.78551394
5	0xbece967e	-0.4034919
6	0xbe72c733	-0.23708801
7	0xbf7b17a2	-0.98082936
8	0xbd42fbb1	-0.047603313
9	0xbf1aa3e5	-0.60406333
10	0xbeb78f19	-0.35851362
11	0xbe45de45	-0.1932307
12	0xbe65385c	-0.2238478
13	0xbf2c73b0	-0.67364025
14	0xbf1a0086	-0.6015705
15	0xbe9bd15e	-0.30433172

layer1.1.running_mean f4 [16]
0	0x3eea8b8c	0.4580959
1	0x3f9596dc	1.1686664
2	0xbe58235e	-0.21107242
3	0x3ee9de7d	0.45677558
4	0xbf0f30ef	-0.5593404
5	0x3fc35326	1.525975
6	0x3f9533e2	1.1656458
7	0xbe86703b	-0.262575
8	0x3e02d583	0.12776761
9	0x3e3d2970	0.18472838
10	0x3e81e6f0	0.25371504
11	0x3f442f02	0.7663423
12	0x3ed9a4f5	0.42508665
13	0xbd3556b2	-0.044272132
14	0xbf8f7be9	-1.1209689
15	0xbe85d6fd	-0.26140586

layer1.1.running_var f4 [16]
0	0x3dff7afa	0.12474628
1	0x3dac6c58	0.084191024
2	0x3d6ac5cf	0.05731755
3	0x3d966fbe	0.07345532
4	0x3d690ddf	0.056897994
5	0x3e404071	0.18774582
6	0x3e147a1c	0.14499706
7	0x3d146da5	0.036237378
8	0x3cd247c8	0.025668994
9	0x3d61d0e0	0.05513084
10	0x3d6e4150	0.058167756
11	0x3decb6b5	0.11558286
12	0x3ddbebeb	0.10738357
13	0x3d4cf872	0.050041623
14	0x3de52cc6	0.111901805
15	0x3dba45f8	0.09095377

layer2.0.weight f4 [64, 16, 3, 3]
0	0xbdde68ac	-0.10859808
1	0xbdbcc738	-0.092176855
2	0xbe9ba0ce	-0.30396122
3	0xbeaf8301	-0.34279636
4	0xbe84e1e1	-0.25953582
5	0xbd2706fb	-0.04077814
6	0xbebbf660	-0.36711407
7	0xbf04e611	-0.51913553
8	0xbe5f18fa	-0.21786872
9	0x3e5fb2de	0.21845576
10	0x3e282b87	0.16422854
11	0xbc108434	-0.008820582
12	0xbe6dc2e5	-0.23218878
13	0xbe25bcf5	-0.16185363
14	0x3ea07cf5	0.31345335
15	0xbe6fa584	-0.23402983
16	0xbec7d60b	-0.3903049
17	0xbdcac24a	-0.09900339
18	0xbe9f7d7a	-0.3115042
19	0x3d3bf999	0.04589233
20	0x3da92c4a	0.082604006
21	0x3c4642c3	0.012100878
22	0xbd8645f7	-0.065563135
23	0xbe0f956b	-0.14021842
24	0x3dcfdaff	0.10149192
25	0x3c258080	0.010101438
26	0xbdeceb17	-0.11568277
27	0xbe266746	-0.16250333
28	0x3ddd88ec	0.108171314
29	0x3ebd99e5	0.37031475
30	0xbd66bc3e	-0.056331865
31	0x3da912ec	0.08255562
32	0xbe6ddc1b	-0.23228495
33	0xbe04f856	-0.12985358
34	0xbe026680	-0.12734413
35	0x3d78a246	0.06070163
36	0xbd04d37b	-0.032428246
37	0xbdc4e094	-0.096131474
38	0x3db91d2c	0.09038767
39	0x3a056688	0.0005088826
40	0xbd9ff7a1	-0.07810903
41	0xbdae2c74	-0.085045725
42	0x3ce58ddd	0.028021747
43	0xbd1e211a	-0.038605787
44	0xbe2c608a	-0.16833702
45	0xbd26cc60	-0.04072225
46	0xbdda6714	-0.10664192
47	0xbe1d867c	-0.15383333
48	0x3dc8e0e0	0.098085165
49	0xbccd8aa4	-0.025090523
50	0x3e7af376	0.24506935
51	0xbe59b3e8	-0.21260035
52	0xbe8577f4	-0.2606808
53	0xbd48e320	-0.04904473
54	0x3dca4650	0.09876692
55	0x3e8fef8a	0.2811244
56	0x3e42c1d5	0.19019254
57	0x3e9b16d9	0.3029087
58	0xbde3bed1	-0.1112038
59	0xbf07f07a	-0.53101313
60	0xbdf19137	-0.11795276
61	0x3d83fbac	0.06444487
62	0x3df493c5	0.11942247
63	0xbe73b61c	-0.23799938
64	0xbe22760e	-0.15865347
65	0xbcced87e	-0.025249716
66	0x3e28ee03	0.16497044
67	0x3e769ba5	0.24082811
68	0xbe7f21ae	-0.24915192
69	0x3db10a41	0.08644534
70	0xbdc7f26d	-0.09763036
71	0xbd15e98f	-0.036599692
72	0x3d2326fe	0.039832108
73	0x3e872af4	0.26399958
74	0xbd2923d5	-0.041293938
75	0xbeac1cef	-0.33615825
76	0xbed6f5cc	-0.41984403
77	0xbdf88b03	-0.121358894
78	0xbeca0ede	-0.39464468
79	0xbe7ec90a	-0.24881378
80	0x3e83e41a	0.25759965
81	0xbe873b42	-0.26412398
82	0x3dedfba4	0.11620262
83	0xbe817837	-0.2528703
84	0xbeb7275a	-0.3577221
85	0xbe2f0697	-0.17092358
86	0xbeeb1fc7	-0.45922682
87	0xbee80d88	-0.45322824
88	0xbed65177	-0.41859028
89	0x3ba012a3	0.004885034
90	0x3e49c615	0.19704469
91	0xbdacd514	-0.08439079
92	0xbe8240c3	-0.25440034
93	0xbd3e0c0a	-0.0463982
94	0x3d4e9c8f	0.050442275
95	0x3d9878cf	0.074449174
96	0xbe9ce427	-0.30642816
97	0xbe8257b2	-0.2545753
98	0x3dcd8ffd	0.10037229
99	0x3d2cc4a2	0.04217971
100	0x3eb93ec4	0.361807
101	0x3e209c67	0.15684663
102	0x3de68b2d	0.112570144
103	0x3d218783	0.039435875
104	0xbe569688	-0.2095586
105	0xbe1d8368	-0.15382159
106	0xbe1c4fcc	-0.15264815
107	0x3e59d9b4	0.21274453
108	0x3d257aaa	0.040400185
109	0xbdf743a2	-0.12073447
110	0x3b0ab7be	0.0021166648
111	0xbd3ffc76	-0.046871625
112	0xbdaa7ec0	-0.08324957
113	0xbe3b3fe5	-0.18286093
114	0xbe9dc76c	-0.3081621
115	0xbcfbb7f4	-0.030727364
116	0x3e4fb12e	0.20282432
117	0x3e44f4ad	0.19233961
118	0xbe070d59	-0.13188685
119	0x3e716a01	0.23575594
120	0x3e6241b3	0.22095375
121	0x3ea41751	0.3204904
122	0x3f1441b8	0.5791278
123	0x3d612607	0.054967906
124	0x3efd4a0e	0.49470562
125	0x3ea1dc42	0.31613356
126	0x3d22e98e	0.039773516
127	0xbdb7c5d3	-0.08973279
128	0xbcd2567c	-0.025676005
129	0xbdf38b9f	-0.11891865
130	0xbc9aab52	-0.01888052
131	0x3dafed32	0.08590163
132	0x3e457145	0.1928149
133	0x3eabd169	0.33558205
134	0x3df07733	0.117414854
135	0x3e83af04	0.25719464
136	0x3ee44825	0.44586292
137	0x3eb07f2b	0.3447202
138	0xbd14bf42	-0.03631521
139	0x3d230d89	0.03980783
140	0x3df8de91	0.12151826
141	0xbea32b16	-0.3186881
142	0xbe192582	-0.14955714
143	0xbe96bd58	-0.29441333
144	0xbdaf4be4	-0.08559397
145	0xbc91b615	-0.017787019
146	0x3d023d2f	0.03179663
147	0x3d76b165	0.06022777
148	0xbe5457ca	-0.20736614
149	0xbe32bfcd	-0.17455979
150	0xbe0c6bc8	-0.1371299
151	0x3e021ddd	0.12706704
152	0x3bd711db	0.006563408
153	0x3d8f48ad	0.06996284
154	0xbd132d69	-0.03593198
155	0x3dacd8b6	0.08439772
156	0xbe749d54	-0.23888141
157	0xbe7087d2	-0.23489311
158	0x3e73a8f5	0.2379492
159	0xbe7b23d1	-0.24525382
160	0xbe3076a6	-0.17232761
161	0x3cc1b8de	0.023647722
162	0xbdf70bfc	-0.12062833
163	0xbe5c7173	-0.21527652
164	0xbe86ed73	-0.26353034
165	0xbe458304	-0.1928826
166	0x3dc18f6f	0.09451186
167	0xbe949cb9	-0.2902582
168	0x3e8b74eb	0.2723764
169	0x3e8c6b58	0.27425647
170	0xbe03e83a	-0.12881556
171	0xbec21988	-0.37910104
172	0x3ea1e67e	0.31621164
173	0x3d823490	0.06357682
174	0xbea21903	-0.31659707
175	0x3dfc2ad4	0.12312856
176	0xbe87e2a5	-0.26540104
177	0x3ee56d55	0.44809976
178	0x3e1e9e70	0.15490127
179	0xbd8be14e	-0.06830083
180	0xbd28ccb1	-0.041210834
181	0x3b8a3e57	0.0042188573
182	0xbe856bed	-0.26058903
183	0xbd46471f	-0.04840767
184	0x3ad792ce	0.001644695
185	0xbe09ce38	-0.13457572
186	0xbc54f270	-0.012997255
187	0x3bb8ac7d	0.0056357966
188	0x3c880f3b	0.016608825
189	0xbe39dabc	-0.18149847
190	0xbe97853c	-0.29593837
191	0xbe4aec59	-0.19816722
192	0xbd9ed511	-0.07755483
193	0x3bc4a09c	0.0060005914
194	0x3c870cc7	0.016485585
195	0xbe0fd9ba	-0.140479
196	0x3e072336	0.13197026
197	0xbe6d5d84	-0.23180205
198	0xbe36e59b	-0.17861025
199	0x3e851028	0.2598889
200	0x3ebab3a0	0.36465168
201	0x3ed4d2c5	0.41567054
202	0x3ebfc670	0.37456083
203	0x3eb01278	0.3438909
204	0x3dfd84b8	0.1237883
205	0x3ddd103f	0.10794114
206	0xbdfc9f79	-0.123351045
207	0xbe8b2c8e	-0.2718243
208	0xbc2795d8	-0.010228597
209	0x3d6b0338	0.057376117
210	0x3e9dca08	0.308182
211	0x3f1aa3d1	0.60406214
212	0xbe21ffae	-0.1582019
213	0x3ea20e9c	0.3165177
214	0x3ed20761	0.41021255
215	0xbe37833a	-0.17921153
216	0x3e907ca6	0.282201
217	0x3df3cfb9	0.11904854
218	0x3c03843d	0.0080271335
219	0xbe4476da	-0.19185963
220	0xbd99e277	-0.07513898
221	0xbeeb8954	-0.4600321
222	0xbe0620b0	-0.13098407
223	0xbd40638f	-0.046969946
224	0x3e0584a3	0.13038878
225	0xbdb80d6f	-0.08986937
226	0xbd75d372	-0.060016103
227	0xbc63939b	-0.013890172
228	0xbe683180	-0.22675133
229	0xbdd9e0aa	-0.106385544
230	0xbe55dd0e	-0.20885107
231	0xbda35843	-0.07975819
232	0x3e5a4e00	0.21318817
233	0xbe88dd3f	-0.26731297
234	0x3e2005ca	0.15627208
235	0x3d846a22	0.06465556
236	0x3e35bb37	0.17747198
237	0x3e1af453	0.15132265
238	0xbf0cdf94	-0.55028653
239	0xbebd8ee6	-0.37023085
240	0xbe93a43f	-0.28836247
241	0xbea0325f	-0.3128843
242	0xbe31616e	-0.17322323
243	0xbe3d4218	-0.18482244
244	0x3e4857c1	0.19564725
245	0x3ecd8dc6	0.40147227
246	0xbd630d43	-0.05543257
247	0x3db22dbb	0.08700129
248	0x3da3ec27	0.08004027
249	0x3e05cf8d	0.13067456
250	0xbe235652	-0.15950897
251	0xbe91ebfc	-0.28500354
252	0xbd01a5fb	-0.031652432
253	0x3e3ce5f1	0.1844709
254	0xbc66ac77	-0.014079205
255	0x3e333af5	0.17502959

layer2.0.bias f4 [64]
0	0x3ceee3ba	0.029161323
1	0x3da7bba4	0.081900865
2	0x3d9523bd	0.07282207
3	0x3c222544	0.00989658
4	0xbe4960d8	-0.19665849
5	0x3dba7095	0.091035046
6	0xbcd9d6a1	-0.0265916
7	0x3e3ccdaf	0.18437837
8	0xbd8268ed	-0.06367669
9	0x3c5b3e4c	0.013381552
10	0xbe5b9e14	-0.21447021
11	0xbd44e029	-0.04806534
12	0xbe160a4d	-0.14652367
13	0x3ea7c457	0.32766983
14	0xbdc49ea6	-0.09600572
15	0xbc86b00c	-0.016441368
16	0xbe03928a	-0.12848869
17	0x3c27d332	0.010243224
18	0xbdbb8215	-0.091556706
19	0x3ddc8b43	0.107687496
20	0x3e6fe5a6	0.23427448
21	0xbd9ddea3	-0.0770848
22	0xbe50724c	-0.20356101
23	0xbd1b0b63	-0.037852656
24	0xbca0bbeb	-0.019620856
25	0xbd833f41	-0.06408549
26	0xbc562de1	-0.013072462
27	0xbcfde0b9	-0.030990945
28	0x3e4c9f66	0.1998268
29	0xbd0af2a8	-0.03392282
30	0x3d8b326d	0.06796727
31	0xbe18edd8	-0.1493448
32	0xbda130eb	-0.078706585
33	0xbdcb1f7d	-0.09918115
34	0xbe822d6c	-0.2542528
35	0xbdeb1135	-0.11477891
36	0x3b4d2f47	0.0031308697
37	0xbd96950f	-0.073526494
38	0xbd971212	-0.073764935
39	0x3dac146f	0.08402335
40	0x3dae669f	0.08515667
41	0xbd7d050b	-0.061772387
42	0xbd8cff63	-0.06884649
43	0x3dad96f1	0.084760554
44	0x3e75413b	0.23950665
45	0x3deea9bd	0.11653469
46	0xbd84fe1d	-0.06493781
47	0xbd4acb7e	-0.04951047
48	0x3c79dc45	0.01525027
49	0x3df73975	0.12071506
50	0x3c4cf40f	0.01250936
51	0x3d80007a	0.06250091
52	0x3c315863	0.010824296
53	0x3e41afe2	0.1891475
54	0xbd955092	-0.07290758
55	0xbe0c5d1f	-0.13707398
56	0x3c5d0f62	0.013492437
57	0x3d9ba2c6	0.07599406
58	0x3d890d0e	0.06691943
59	0xbdbfd214	-0.09366241
60	0xbd2c181c	-0.04201518
61	0x3e8fb0cf	0.28064582
62	0xbc2dd8f9	-0.010610812
63	0xbd08f7ea	-0.033439554

layer2.1.weight f4 [64]
0	0x3f2b3d9b	0.6689088
1	0x3f88a226	1.0674484
2	0x3f7855a4	0.9700568
3	0x3fa49b3d	1.2859875
4	0x3fa61d18	1.2977629
5	0x3f89af8c	1.0756698
6	0x3f958940	1.168251
7	0x3f910f3f	1.1332778
8	0x3f94de85	1.1630408
9	0x3fa1d916	1.2644374
10	0x3f876aca	1.0579464
11	0x3f84bcd2	1.0370123
12	0x3fb6c4c1	1.4278795
13	0x3f922b5e	1.1419485
14	0x3fa337f8	1.2751455
15	0x3f8c4c5f	1.0960807
16	0x3f9defd3	1.2338814
17	0x3f71ae1a	0.9440628
18	0x3f70b0cc	0.9401977
19	0x3f9f0785	1.242417
20	0x3faefe56	1.3671367
21	0x3f8afca5	1.0858351
22	0x3f9d635e	1.229595
23	0x3f97a59d	1.1847416
24	0x3fa2a4ef	1.2706584
25	0x3faa2c97	1.3294858
26	0x3f7accdd	0.97968847
27	0x3facfca6	1.3514602
28	0x3f6b928f	0.92020506
29	0x3f949c26	1.1610153
30	0x3f8071e9	1.0034763
31	0x3f92fe9b	1.148395
32	0x3f6eed37	0.9333071
33	0x3f992b42	1.1966326
34	0x3f9b2d29	1.2123157
35	0x3f63465d	0.8877924
36	0x3f7fe100	0.999527
37	0x3f8a1105	1.0786444
38	0x3f9ab2c6	1.2085807
39	0x3f973476	1.1812885
40	0x3f7f7f83	0.9980394
41	0x3fb597aa	1.4186909
42	0x3f4abd25	0.7919486
43	0x3f707c1e	0.9393939
44	0x3f2b77d3	0.6697971
45	0x3fbdca77	1.4827412
46	0x3f7009a1	0.9376469
47	0x3f8c4893	1.0959648
48	0x3fb0091f	1.3752784
49	0x3f9b8ce0	1.2152367
50	0x3f9c3339	1.2203132
51	0x3f9b02ff	1.2110289
52	0x3f88ad18	1.0677824
53	0x3f65f1d2	0.89822114
54	0x3f7066b3	0.93906707
55	0x3f8a4290	1.0801563
56	0x3f446a1f	0.7672443
57	0x3f7b2075	0.980964
58	0x3f87520f	1.0571917
59	0x3f9d162d	1.2272393
60	0x3fb7eea8	1.4369707
61	0x3fb3f5db	1.4059404
62	0x3f83c97c	1.0295863
63	0x3f7a981f	0.9788837

layer2.1.bias f4 [64]
0	0xbf5c5735	-0.8607057
1	0xbf8582cb	-1.043054
2	0xbf844e4a	-1.0336392
3	0xbf8cbed3	-1.0995735
4	0xbf607aad	-0.8768719
5	0xbf7e2d71	-0.9928809
6	0xbf816989	-1.0110332
7	0xbf5fa43d	-0.8735998
8	0xbf62b27d	-0.885536
9	0xbf8c5bb0	-1.0965481
10	0xbf4c4c99	-0.7980438
11	0xbf53fa0b	-0.8280341
12	0xbf7cb925	-0.9872001
13	0xbf01d455	-0.5071462
14	0xbf983d2a	-1.1893666
15	0xbf96c1a3	-1.1777843
16	0xbf8cd7fe	-1.1003416
17	0xbf609cc9	-0.87739235
18	0xbf2c44cf	-0.67292494
19	0xbf7bf832	-0.9842559
20	0xbfb0153e	-1.3756483
21	0xbf7a2990	-0.9771967
22	0xbf57f8f9	-0.8436428
23	0xbf73a314	-0.9517071
24	0xbf57d0bc	-0.8430288
25	0xbf549370	-0.8303747
26	0xbf2622da	-0.6489693
27	0xbf4682fb	-0.7754361
28	0xbf11a2de	-0.5688914
29	0xbf81c87a	-1.0139306
30	0xbf7ac9ba	-0.9796406
31	0xbf5038e2	-0.81336796
32	0xbf46070f	-0.7735452
33	0xbf78794b	-0.9706008
34	0xbf5e32af	-0.8679609
35	0xbf00b407	-0.502747
36	0xbfaa1636	-1.3288028
37	0xbf84c7ae	-1.0373437
38	0xbf6c5142	-0.9231149
39	0xbf7b19d3	-0.9808628
40	0xbf89b507	-1.075837
41	0xbf82e909	-1.0227367
42	0xbf96f1d1	-1.1792547
43	0xbf3633ed	-0.7117298
44	0xbf23d149	-0.6399122
45	0xbf8cb922	-1.0993998
46	0xbf614e32	-0.8800994
47	0xbf7e54cd	-0.99348146
48	0xbf8b280b	-1.0871595
49	0xbf4021c8	-0.75051546
50	0xbf411d36	-0.754352
51	0xbf802345	-1.0010763
52	0xbfa85105	-1.3149725
53	0xbf944321	-1.1582986
54	0xbf7d7dff	-0.9902038
55	0xbf83fb70	-1.0311108
56	0xbf8a158d	-1.0787827
57	0xbf95988a	-1.1687176
58	0xbf41586d	-0.7552555
59	0xbf85edc5	-1.0463187
60	0xbfb07f8a	-1.3788922
61	0xbf7bba38	-0.9833102
62	0xbf44dcf6	-0.7689966
63	0xbf8641e2	-1.0488856

layer2.1.running_mean f4 [64]
0	0xbfd145b0	-1.6349392
1	0xbde7a14a	-0.1131006
2	0x3c86f769	0.016475396
3	0xbf367979	-0.712791
4	0xbf43f5d6	-0.7654699
5	0xbeb51bf4	-0.3537289
6	0xc0241f0e	-2.5643954
7	0xbf72edb5	-0.9489396
8	0xbda5cab8	-0.08095306
9	0x3e663598	0.22481382
10	0xbe473395	-0.1945327
11	0xbfdc4946	-1.7209861
12	0xbe6c53bb	-0.23078816
13	0xbf7abd33	-0.97944945
14	0xbfc04422	-1.5020792
15	0xbfd8f1a5	-1.6948744
16	0xbf8f60c2	-1.1201403
17	0xbeccfcb6	-0.40036553
18	0xbfd1f6fe	-1.6403501
19	0xbf992f2a	-1.1967518
20	0xbfd617a5	-1.6725966
21	0xbf7ff1bc	-0.9997823
22	0xbf9f6cb8	-1.2455053
23	0x3dcc6437	0.09980052
24	0x40015dfb	2.021361
25	0xbfbd03a4	-1.4766736
26	0x3d9cd3f2	0.07657613
27	0xbe224ea2	-0.15850309
28	0xbfc2b7c6	-1.5212333
29	0xbf1f76ac	-0.62290454
30	0xbfef85f4	-1.8712754
31	0xbe8df618	-0.27726817
32	0xc005d884	-2.09134
33	0xbef329a1	-0.47492698
34	0x3e1fdb75	0.1561106
35	0xc04115b5	-3.01695
36	0xc010b771	-2.2611964
37	0xbfbb8867	-1.4651002
38	0x3f33df38	0.7026248
39	0x3fb3f70f	1.4059771
40	0xbf7c4474	-0.9854195
41	0xbe17cfc0	-0.14825344
42	0xc06e201a	-3.7207093
43	0xbf52ac09	-0.82293755
44	0xbf3d30f4	-0.7390282
45	0x3fa2643b	1.2686838
46	0xbfc68d7a	-1.5511925
47	0xbf249dc1	-0.64303213
48	0xbf36ee8f	-0.7145776
49	0xbf87edba	-1.0619423
50	0xbf0d8854	-0.55286145
51	0xbfacb54a	-1.3492825
52	0xbf449380	-0.7678757
53	0x3f8948e4	1.072537
54	0xbf921725	-1.1413313
55	0x3ed126a6	0.408498
56	0xbf15c23f	-0.5849952
57	0xc004b705	-2.0736706
58	0xbe6d5916	-0.23178515
59	0x3e4b6f12	0.19866589
60	0xbf8a9d7c	-1.082931
61	0x3facfbfc	1.35144
62	0xbf16fff4	-0.58984303
63	0x3f9635ca	1.1735165

layer2.1.running_var f4 [64]
0	0x402f8c34	2.7429323
1	0x405637f9	3.3471663
2	0x402d4452	2.707295
3	0x404d97cf	3.2123907
4	0x4012d293	2.2941024
5	0x403bdad1	2.9352305
6	0x407e1648	3.97011
7	0x4096873f	4.7040095
8	0x403fc3be	2.9963222
9	0x405d1531	3.4544184
10	0x4066d048	3.6064625
11	0x40416ec0	3.0223846
12	0x407b19e7	3.923456
13	0x407a6635	3.9124882
14	0x40285940	2.6304474
15	0x40028b10	2.0397377
16	0x40516dcf	3.2723272
17	0x4050c9ae	3.2623096
18	0x40891ca7	4.2847476
19	0x401aaa4d	2.4166443
20	0x3fc59b70	1.5438061
21	0x4089fac6	4.311862
22	0x4000dc26	2.0134368
23	0x408163a1	4.0434117
24	0x400b6a86	2.1783767
25	0x403453ea	2.8176217
26	0x4051c490	3.2776222
27	0x403ab1b1	2.9170954
28	0x40588fe9	3.3837836
29	0x400afbbc	2.1716146
30	0x4055c089	3.3398764
31	0x4067f288	3.624178
32	0x40574684	3.363679
33	0x400879c9	2.1324332
34	0x406483f8	3.5705547
35	0x409041d8	4.5080376
36	0x3fc36da4	1.5267835
37	0x401b1f94	2.4238024
38	0x4012998f	2.2906225
39	0x3fe91e6b	1.8212408
40	0x408a38b6	4.3194227
41	0x40341f1b	2.8143985
42	0x401fbb7e	2.4958186
43	0x40a5c68b	5.180486
44	0x402ffdc2	2.7498631
45	0x40198db4	2.3992739
46	0x40b13779	5.5380216
47	0x402268b8	2.5376415
48	0x4041a9fe	3.0260005
49	0x40447c97	3.0701044
50	0x405bc74c	3.434039
51	0x4050d052	3.2627149
52	0x3fee9cda	1.8641617
53	0x401c5a00	2.4429932
54	0x40844c62	4.134324
55	0x40115a2c	2.2711287
56	0x3fd1ed53	1.6400551
57	0x4010ba45	2.261369
58	0x403fdc08	2.9978046
59	0x4071bd9f	3.7771986
60	0x40008a7f	2.0084531
61	0x40083e20	2.1287918
62	0x4087b511	4.240853
63	0x403220ba	2.7832475

layer3.0.weight f4 [64, 3136]
0	0xbc86b775	-0.016444901
1	0xbbb89c41	-0.0056338613
2	0xbc885c22	-0.016645495
3	0xbc8445f5	-0.01614664
4	0xbc8df957	-0.017330809
5	0xbc476ba5	-0.012171661
6	0x3c27ffd4	0.010253865
7	0x3c36f253	0.011166173
8	0xbb29ca2a	-0.0025907853
9	0x3c0231ef	0.007946475
10	0xbd11ebb1	-0.035625163
11	0xbc7526a7	-0.014962829
12	0xbc749b21	-0.014929564
13	0xbc8fae66	-0.017539214
14	0x3b7d03f2	0.0038607088
15	0xbcbc0eca	-0.02295627
16	0xbcb7df6a	-0.0224454
17	0xbd1c413e	-0.038148157
18	0xbce5f933	-0.028072929
19	0xbc23abf3	-0.009989726
20	0x3c67aed5	0.014140804
21	0xbce1b8cd	-0.02755394
22	0x3bb14d1e	0.0054108044
23	0xbca78040	-0.020446897
24	0xbcbce163	-0.023056692
25	0xbd555026	-0.05207839
26	0xbd2897cc	-0.04116039
27	0x3c1a6cf2	0.009425389
28	0x3c638f9a	0.013889218
29	0x3c258e4d	0.010104728
30	0x3c3546e5	0.011064266
31	0xbc3e8562	-0.011628481
32	0xbce4e2d4	-0.027940191
33	0xbd42753d	-0.04747509
34	0x3c58aae8	0.013224341
35	0x3c750e74	0.014957059
36	0xbbfa2be7	-0.007634628
37	0xbc1a72a3	-0.009426746
38	0xbb82090d	-0.003968364
39	0xbc8dbc9f	-0.017301856
40	0xbc5a30b9	-0.01331728
41	0xbbd4aa20	-0.006490007
42	0xbad15bb2	-0.0015972762
43	0x3b90dc77	0.0044208127
44	0x3c9e9703	0.019359117
45	0xbbf0d2f7	-0.0073493677
46	0x3c3a24d3	0.011361319
47	0xbc0475f4	-0.008084763
48	0xbb9b7766	-0.004744458
49	0xbbbde864	-0.0057955254
50	0x3adce9ec	0.0016854382
51	0xbbd9a654	-0.0066421423
52	0xbc0e3eb8	-0.0086819455
53	0x3ca58b33	0.020207977
54	0x3ba4e358	0.0050319843
55	0x3be7bb46	0.0070718853
56	0x3c1856b2	0.0092980135
57	0xbc4881b6	-0.012237957
58	0xbd302625	-0.043005127
59	0xbd1e8409	-0.038700137
60	0xbc82b66d	-0.015956128
61	0x3be3ea6b	0.006955435
62	0x3c21316b	0.009838442
63	0xbc7407cc	-0.014894437
64	0x3b30b15d	0.0026961186
65	0xbc5992db	-0.013279642
66	0xbd0de881	-0.03464556
67	0xbd41213c	-0.047150835
68	0xbc4a59f4	-0.012350548
69	0x3c965bbe	0.018354293
70	0x3b1ee011	0.002424244
71	0x3bb6c11f	0.005577221
72	0xbbee043f	-0.00726369
73	0xbcbd5606	-0.023112308
74	0xbcc44f3e	-0.023963567
75	0xbd214679	-0.03937385
76	0xbadc2506	-0.0016795702
77	0xbc9fd0ee	-0.019508805
78	0xbc95a008	-0.018264785
79	0xbca4d54e	-0.020121243
80	0xbbfa2e89	-0.007634942
81	0xbb904419	-0.004402649
82	0xbd2dc193	-0.042420935
83	0x3c0739f1	0.00825356
84	0xbc4e287a	-0.012582893
85	0xbc9e7106	-0.019341003
86	0x3c2a8009	0.0104065025
87	0x3ab8a389	0.0014086823
88	0x3c3a433c	0.011368569
89	0x3c221153	0.009891826
90	0x3b4577c7	0.0030131207
91	0xbc19f8d2	-0.009397702
92	0xbc93c8ae	-0.018040027
93	0x3c2c9b53	0.010535079
94	0xbca7b689	-0.020472782
95	0xbc538b71	-0.012911663
96	0x3ac06a98	0.0014680205
97	0xbc35afb0	-0.01108925
98	0x3c1c1f8d	0.009529007
99	0x3b496f90	0.0030736662
100	0x3cacf41e	0.021112498
101	0xbc2ca9a9	-0.010538497
102	0xbc4fba1c	-0.012678649
103	0xbc5b9db4	-0.013404299
104	0xba9b464f	-0.0011846515
105	0x3b84c24d	0.004051483
106	0xbc88378c	-0.01662805
107	0x3c8b3bbc	0.016996257
108	0x3cadc38c	0.021211408
109	0x3980501b	0.00024473746
110	0xbb308ca4	-0.0026939297
111	0xbb517f43	-0.0031966723
112	0xbd2b9ce4	-0.04189767
113	0x3aa0bc81	0.001226321
114	0xbb177120	-0.00231082
115	0x3b798d67	0.0038078667
116	0xb9a79388	-0.00031962642
117	0xbb447a8a	-0.0029980266
118	0x3c273501	0.010205508
119	0xbd58c23e	-0.05291962
120	0x3c53d9b3	0.0129303215
121	0xbcaad5ee	-0.020853963
122	0xbc2d182e	-0.010564847
123	0xbc8ae68c	-0.016955636
124	0x3bde03d6	0.0067753596
125	0xbca1345a	-0.019678283
126	0x3c40cdc4	0.011767808
127	0x3c1107d5	0.008851965
128	0xbbc05ed2	-0.0058706785
129	0x3b9ff1e8	0.0048811324
130	0x3c3a7f73	0.011382925
131	0x3cb43eff	0.022002695
132	0xbd1ed1e7	-0.038774397
133	0xbc2ed185	-0.010670071
134	0x3c25883c	0.010103282
135	0xbc5d2503	-0.013497594
136	0x3b61645f	0.0034392101
137	0x3905515e	0.0001271418
138	0x3cbcecf6	0.02306221
139	0xbd126636	-0.035742007
140	0xbc51611e	-0.012779502
141	0x3ca8aa05	0.020588884
142	0x3c07be93	0.0082851825
143	0x3b80cd6a	0.0039307373
144	0x3ca36925	0.019947598
145	0xbd4683fd	-0.048465718
146	0xbc21628e	-0.009850157
147	0xbbc7ef0f	-0.006101496
148	0x39fc0331	0.00048067563
149	0xbbc8863e	-0.0061195185
150	0xbc71975a	-0.014745558
151	0xbbb496ef	-0.0055111567
152	0xbc026a9c	-0.007959988
153	0x3bbfe095	0.0058556297
154	0x3c52464e	0.012834145
155	0xbc5c2ba5	-0.01343814
156	0xbc04caf4	-0.008105028
157	0x3bc59548	0.0060297586
158	0xbc2895d3	-0.010289627
159	0x39915c00	0.000277251
160	0xbc14adf2	-0.009074675
161	0xbc4bcc15	-0.012438794
162	0xbca15344	-0.019693024
163	0xbd323343	-0.04350592
164	0x3c2daf21	0.010600836
165	0xbc20b29a	-0.009808207
166	0xbb542fe1	-0.003237717
167	0xbc7417a9	-0.014898219
168	0x3c4e63e8	0.012597062
169	0x3b1fe8f6	0.002440033
170	0xbcb4d20a	-0.02207281
171	0xbd3ac59d	-0.045598615
172	0x3aec0307	0.0018006273
173	0xbc652d3a	-0.013987834
174	0xbcb75e03	-0.022383695
175	0xbcfb1bcc	-0.030652903
176	0xbcdbc471	-0.026827069
177	0xbbd0323c	-0.0063536447
178	0xbd25b73d	-0.040457953
179	0xbc40f23d	-0.011776504
180	0xbd25c5a6	-0.040471695
181	0x3c3f446e	0.01167403
182	0xbca89072	-0.02057669
183	0xbbfd5bb9	-0.0077318815
184	0xbc9d58b4	-0.019207336
185	0xbc291d0f	-0.0103218695
186	0x3bd16c07	0.0063910517
187	0xbd12a438	-0.035801142
188	0xbb989ced	-0.004657379
189	0xbb2a6129	-0.0025997853
190	0x3c8014ef	0.015634982
191	0x3bf2ca95	0.0074094036
192	0x3beb40c5	0.007179352
193	0xbcbdd53f	-0.023172973
194	0xbc99ac01	-0.018758776
195	0xbbac5dc1	-0.0052602
196	0xbd0d3d7f	-0.034482475
197	0xbc40dd6b	-0.01177154
198	0xbc1c6da3	-0.009547624
199	0xbc0c92ee	-0.008579953
200	0xbc922f48	-0.017844811
201	0x3b326475	0.0027220522
202	0xba9d3a50	-0.0011995528
203	0xbc9e8a59	-0.019353079
204	0xbd3d4428	-0.046207577
205	0xbcf92902	-0.030415062
206	0xbcb8d185	-0.022560844
207	0xbb58394c	-0.0032993136
208	0xbba86e1e	-0.00514008
209	0x3b42500f	0.002964977
210	0xba67df26	-0.00088452024
211	0xbd5cbe08	-0.053892165
212	0xbcbe20ca	-0.023208994
213	0xbc18f9f6	-0.009336939
214	0xbc62997e	-0.013830541
215	0xbc4d6d87	-0.01253832
216	0x3c88e21f	0.016709385
217	0xbcc12377	-0.023576481
218	0xbae2e465	-0.0017310499
219	0xbcef5797	-0.02921657
220	0xbb2fff22	-0.0026854952
221	0xbd16628f	-0.036715087
222	0xbce69be7	-0.028150512
223	0xbb032225	-0.0020009365
224	0xbcd7ed6c	-0.026358329
225	0x3c3a9eea	0.011390427
226	0xbc92a07a	-0.017898787
227	0xbd4c4849	-0.049873624
228	0xbbc65f43	-0.0060538366
229	0xba98f658	-0.0011670096
230	0xbc85b16b	-0.016319951
231	0x3c273d5c	0.0102075
232	0x3b337896	0.0027385107
233	0xbc939422	-0.018014971
234	0x3c03a848	0.008035727
235	0xbd11a848	-0.035560876
236	0x3be8eee9	0.0071085584
237	0x3b5f542f	0.0034077277
238	0xbc57242b	-0.013131182
239	0xbba03c1e	-0.004889979
240	0xbbc76897	-0.006085466
241	0xbd0bac96	-0.034100138
242	0xbc83aeb9	-0.016074525
243	0x3ade983e	0.0016982628
244	0xbc013aa9	-0.007887521
245	0xbc5e4218	-0.013565563
246	0x3be36afa	0.006940243
247	0xbc024840	-0.007951796
248	0x3cad43d5	0.021150509
249	0x3b9f2563	0.0048567518
250	0xbbde8cd9	-0.0067916927
251	0xbc3a16db	-0.011357988
252	0xbab89e32	-0.0014085232
253	0xbca189de	-0.01971906
254	0xbc209e34	-0.009803344
255	0xbd11d015	-0.035598833

layer3.0.bias f4 [64]
0	0xbd2bb625	-0.041921753
1	0xbea628af	-0.32452914
2	0xbdb46e4e	-0.088101014
3	0x3e8cbb3a	0.27486593
4	0x3c2b11a9	0.010441222
5	0x3e02a18b	0.12756936
6	0xbd2c6cc8	-0.04209593
7	0xbc913f3c	-0.017730348
8	0x3b6885c0	0.0035480112
9	0xbb557b82	-0.0032574837
10	0x3db3468c	0.0875369
11	0xbd9256a9	-0.07145435
12	0x3dba5aec	0.09099373
13	0x3c2c823e	0.010529099
14	0x3dd00481	0.10157109
15	0x3dc59bed	0.09648881
16	0xbdc6ed76	-0.09713261
17	0xbd41e410	-0.047336638
18	0xbda0754e	-0.07834874
19	0x3d5bd290	0.053667605
20	0xbc52cdcc	-0.012866449
21	0xbdf3be63	-0.11901548
22	0xbb38129c	-0.0028087264
23	0x3c0022ec	0.007820826
24	0xbdd147f0	-0.10218799
25	0xbcf0aa8d	-0.0293782
26	0x3e2650fd	0.16241832
27	0xbae569ac	-0.0017502806
28	0xbc9a9787	-0.018871082
29	0xbcac2e04	-0.021018036
30	0xbcbc33b6	-0.022973876
31	0x3c009c06	0.007849699
32	0xbe666c00	-0.22502136
33	0x3c26a286	0.010170585
34	0xbca818c7	-0.020519627
35	0xbcf1c40c	-0.029512428
36	0x3d8352a0	0.06412244
37	0xbc21381b	-0.009840037
38	0xbb20e298	-0.0024549123
39	0xbe2dfbc5	-0.16990574
40	0x3d6ef344	0.058337465
41	0x3b68921c	0.0035487479
42	0x3abdc549	0.0014478351
43	0xbc465c7d	-0.012107012
44	0x3d472d80	0.048627377
45	0xbbdf3554	-0.006811777
46	0x3bc114d1	0.005892374
47	0xbad17c92	-0.0015982559
48	0xbd50b2ca	-0.050951757
49	0xbd5f6774	-0.05454202
50	0xbc49ad8a	-0.012309441
51	0xbbbc6b44	-0.0057500917
52	0xbc937a41	-0.018002631
53	0x3dc71dc5	0.09722475
54	0xba21cc0d	-0.00061720685
55	0xbc7a49df	-0.015276401
56	0xbc8e1e6f	-0.017348496
57	0xbbe66dfd	-0.0070321546
58	0x3b968226	0.0045931516
59	0x3b99ea37	0.00469711
60	0xbc9862f2	-0.018601868
61	0x3d9541a3	0.0728791
62	0x3bb3f8e3	0.005492316
63	0x3b5a49e1	0.0033308195

layer3.3.weight f4 [10, 64]
0	0xbdc615b4	-0.09672108
1	0xbec0f67f	-0.37688062
2	0x3d61e8ce	0.05515366
3	0xbee17000	-0.44030762
4	0xbd97f83a	-0.07420392
5	0xbea44b16	-0.32088536
6	0x3dc9087a	0.0981607
7	0x3d23c763	0.039985072
8	0xbe99fcd6	-0.3007571
9	0x3c9e1373	0.019296383
10	0x3e8bc2ee	0.27297157
11	0xbd14ea2f	-0.036356147
12	0x3e2cf2a3	0.16889434
13	0xbf04665c	-0.5171869
14	0xbe6246ac	-0.22097272
15	0xbf0cd4e9	-0.55012375
16	0x3de4f8f1	0.11180294
17	0xbebb31d1	-0.36561444
18	0xbf139576	-0.57649934
19	0x3e2ada00	0.16684723
20	0xbd4c9561	-0.049947146
21	0x3e8b83aa	0.2724889
22	0xbdbba93f	-0.091631405
23	0x3d9e89a6	0.07741098
24	0x3c01cda5	0.007922565
25	0x3e7e4e2f	0.24834512
26	0x3e631828	0.22177184
27	0xbca7bacc	-0.020474814
28	0x3cf3f400	0.029779434
29	0xbcf296a0	-0.02961284
30	0xbdd966f6	-0.10615341
31	0x3dd1948d	0.10233412
32	0xbe44eb6a	-0.19230428
33	0xbd3dbdb4	-0.046323493
34	0x3c99107d	0.01868462
35	0xbed85a9a	-0.42256624
36	0x3e7c8045	0.24658306
37	0x3dd9adc1	0.10628844
38	0x3ac6b4df	0.0015160105
39	0xbf167c4f	-0.5878343
40	0x3e301979	0.17197217
41	0x3dd8aa4e	0.10579358
42	0xbc885aac	-0.016644798
43	0xbcf60375	-0.030030945
44	0x3e19905c	0.14996475
45	0xbca573a8	-0.02019675
46	0xbc233a68	-0.009962656
47	0x3db310aa	0.08743413
48	0xbe4aaa32	-0.19791487
49	0xbf0a243f	-0.5396156
50	0xbde23aef	-0.11046397
51	0x3d7098c4	0.05873944
52	0xbde080f7	-0.10962098
53	0x3dcdf331	0.10056151
54	0xbd676749	-0.056494985
55	0x3deb4c88	0.114892066
56	0x3d882a73	0.066487215
57	0xbbf8fed3	-0.007598737
58	0xbd6b292e	-0.05741232
59	0xbdebb99b	-0.11510011
60	0xbdd72f74	-0.10507098
61	0x3e7063f1	0.23475625
62	0x3d1c8f9c	0.038222894
63	0xbcedf333	-0.02904663
64	0x3c8c0198	0.017090604
65	0xbeeaae13	-0.45835933
66	0xbebbfc28	-0.36715817
67	0x3e99a099	0.3000534
68	0x3dcc42c8	0.09973675
69	0x3e9aeb21	0.30257514
70	0x3dca0df6	0.09865944
71	0x3d61f184	0.055161968
72	0xbdd08aa4	-0.101826936
73	0xbd446269	-0.047945414
74	0xbed57fef	-0.41699168
75	0x3cdec12a	0.027191717
76	0x3e2e687c	0.17032045
77	0x3e6f83e7	0.2339016
78	0x3e5586e1	0.20852233
79	0x3e9184fd	0.28421775
80	0xbd559471	-0.052143518
81	0x3e928a99	0.28621367
82	0xbf0d1f15	-0.5512555
83	0xbefda4d3	-0.49539813
84	0x3d55bcab	0.05218188
85	0xbe9bea52	-0.3045221
86	0x3dc31d3c	0.095270604
87	0x3d90e195	0.07074276
88	0xbecf3105	-0.40467086
89	0xbe5d4e47	-0.21611892
90	0x3e43e5c6	0.1913062
91	0x3db0931b	0.08621808
92	0x3da0dc46	0.07854514
93	0xbd5a750d	-0.053334285
94	0xbd6c67b0	-0.05771607
95	0x3db84938	0.0899834
96	0xbefab96b	-0.48969588
97	0xbd3fae64	-0.04679717
98	0x3dcbc7e0	0.099502325
99	0x3db40c62	0.08791424
100	0xbdcd1e78	-0.10015577
101	0x3dd7fb17	0.105459385
102	0xbdbd4df0	-0.09243381
103	0xbec1b4d8	-0.37833285
104	0xbeb05ef1	-0.34447435
105	0xbdecb452	-0.11557831
106	0xbd86e08d	-0.065857984
107	0xbd9217d2	-0.071334496
108	0x3e847426	0.25869864
109	0xbdc7117d	-0.097201325
110	0xbbef794e	-0.007308162
111	0xbdd3cc50	-0.10341704
112	0xbeb386d9	-0.35063818
113	0xbd3bf036	-0.04588338
114	0xbdabd3a3	-0.08389976
115	0x3d99f50f	0.07517444
116	0xbd98b95e	-0.07457231
117	0xbe1b520e	-0.1516802
118	0xbdb51969	-0.08842737
119	0x3d2610c1	0.04054332
120	0x3dc29201	0.09500504
121	0xbdce25c1	-0.10065795
122	0xbd099102	-0.033585556
123	0xbc9f2884	-0.019428499
124	0x3e039595	0.1285003
125	0x3e2aa08a	0.16662803
126	0x3dcc2c2d	0.09969363
127	0xbdc08558	-0.09400433
128	0xbd84da72	-0.06486978
129	0x3e531f60	0.20617437
130	0x3d8e5424	0.06949642
131	0x3e5dd54a	0.21663395
132	0xbddb2205	-0.10699848
133	0xbe8082e1	-0.25099853
134	0x3dcf9e7b	0.101376496
135	0x3c9016bc	0.017588966
136	0x3e86059e	0.2617616
137	0xbdb1c0e7	-0.08679371
138	0xbf1065c4	-0.5640528
139	0x3dbc7af9	0.09203143
140	0xbf1b1297	-0.6057524
141	0xbec4d0ae	-0.3844046
142	0x3e9a4a11	0.30134633
143	0xbe144942	-0.1448107
144	0xbf24858b	-0.6426627
145	0x3db5929f	0.088658564
146	0xbdad2293	-0.0845386
147	0x3d95d4b0	0.073159575
148	0x3bd89d45	0.006610545
149	0x3ea8fa67	0.33003542
150	0x3cb785e6	0.022402715
151	0x3de07c24	0.10961178
152	0xbea96349	-0.3308356
153	0x3e205b9b	0.15659945
154	0xbe8add7b	-0.271221
155	0x3e046b71	0.1293161
156	0x3de117cd	0.10990868
157	0xbdc08935	-0.0940117
158	0xb87b20f3	-5.987375e-05
159	0x3ceb6023	0.028732365
160	0xbec95db0	-0.3932929
161	0xbda90e29	-0.08254654
162	0xbda8a4c8	-0.082345545
163	0xbe8defb5	-0.27721944
164	0xbe5fc2ed	-0.21851702
165	0x3bdde2fe	0.0067714443
166	0xbd94a909	-0.072588034
167	0xbf010a8d	-0.50406724
168	0x3e48c5f8	0.19606769
169	0x3d8364a0	0.06415677
170	0xbd946883	-0.072464965
171	0xbd2780d7	-0.040894356
172	0x3e7b3224	0.24530846
173	0x3d485e95	0.048918325
174	0xbddbb133	-0.107271574
175	0xbdf1fa9a	-0.118153766
176	0x3b139e38	0.0022524726
177	0x3e33ee80	0.1757145
178	0x3d5ebf56	0.05438169
179	0x3d7e1cd4	0.06203921
180	0xbd33be35	-0.043882567
181	0x3e647562	0.22310403
182	0xbd78db17	-0.060755815
183	0x3c9561ec	0.01823517
184	0xbba22c3f	-0.004949122
185	0x3d576d4d	0.05259447
186	0x3d9a4279	0.0753221
187	0xbd0e6f87	-0.03477433
188	0x3d95b97e	0.073107705
189	0x3d5ea1cd	0.054353524
190	0xbdf2fda9	-0.11864788
191	0xbd4bacd5	-0.049725372
192	0x3da9d269	0.08292086
193	0xbea6d08c	-0.32580984
194	0xbeeff287	-0.4686472
195	0xbe0f7452	-0.14009216
196	0x3dea0b8b	0.11427983
197	0xbe6f6a7c	-0.23380464
198	0x3d99fc87	0.07518869
199	0xbd06d563	-0.032918345
200	0xbe108ec2	-0.14116958
201	0x3d36dd3f	0.04464459
202	0xbef40cb6	-0.47665948
203	0x3e0afd58	0.13573205
204	0xbf142546	-0.57869375
205	0xbf014128	-0.50490046
206	0xbe9a0a53	-0.30086002
207	0xbe859490	-0.26089907
208	0xbeb7fe3f	-0.35936162
209	0xbe9c10fc	-0.30481708
210	0x3e650c8f	0.22368072
211	0xbeb0d035	-0.3453385
212	0xbc1a3948	-0.009413071
213	0xbea21615	-0.31657472
214	0x3ded2ae2	0.11580445
215	0x3d9bb6c1	0.07603217
216	0xbedec8fb	-0.4351271
217	0xbe7af012	-0.24505642
218	0x3e3ad69d	0.18245931
219	0xbd1c69b6	-0.03818675
220	0xbbbef0b8	-0.0058270358
221	0x3ad45767	0.0016200364
222	0xbe0180a2	-0.12646726
223	0xbdd843f9	-0.1055984
224	0xbec827b1	-0.39092782
225	0x3dbc0411	0.09180463
226	0x3a760429	0.0009384775
227	0x3e92b7df	0.28655908
228	0x3e4a1e56	0.19738135
229	0xbca38ca2	-0.01996452
230	0x3c654643	0.0139938025
231	0x3e69c6c2	0.22829726
232	0xbe98c2ad	-0.29836026
233	0xbb680a43	-0.0035406507
234	0x3d8efd38	0.069818914
235	0xbde998f4	-0.114061266
236	0x3e79944c	0.24372977
237	0xbde8aecc	-0.11361465
238	0xbdbfac4d	-0.09359036
239	0x3df02085	0.117249526
240	0x3e376319	0.17908897
241	0x3e58f52d	0.21187277
242	0xbda9a0d0	-0.08282626
243	0x3dd9befe	0.10632132
244	0xbda5e05e	-0.08099435
245	0x3e7c47f4	0.24636823
246	0xbdf339e2	-0.11876275
247	0x3d925272	0.071446314
248	0x3d953caa	0.072869614
249	0x3d9e8cef	0.07741725
250	0x3cd6d5ad	0.026224935
251	0x3d294b79	0.041331742
252	0x3dd73c27	0.1050952
253	0xbea5c7c6	-0.32378978
254	0x3d816a8f	0.063191526
255	0xbda3d6d1	-0.07999957

layer3.3.bias f4 [10]
0	0xbf054a45	-0.5206645
1	0x3f1ca782	0.61193097
2	0xbe3ae4d1	-0.18251349
3	0x3eff48fd	0.49860373
4	0x3d40b9cc	0.04705219
5	0xbe7ed1d4	-0.2488473
6	0xbe7c6903	-0.24649434
7	0xbd7f43b1	-0.062320415
8	0xbea6102e	-0.3243422
9	0x3e9d8c9d	0.30771342
