pytorch/mnist.onnx (onnx, 893581 bytes, 8 tensors)

layer3.0.weight f4 [64, 3136]
0	0xbc86b775	-0.016444901
1	0xbbb89c41	-0.0056338613
2	0xbc885c22	-0.016645495
3	0xbc8445f5	-0.01614664
4	0xbc8df957	-0.017330809
5	0xbc476ba5	-0.012171661
6	0x3c27ffd4	0.010253865
7	0x3c36f253	0.011166173
8	0xbb29ca2a	-0.0025907853
9	0x3c0231ef	0.007946475
10	0xbd11ebb1	-0.035625163
11	0xbc7526a7	-0.014962829
12	0xbc749b21	-0.014929564
13	0xbc8fae66	-0.017539214
14	0x3b7d03f2	0.0038607088
15	0xbcbc0eca	-0.02295627
16	0xbcb7df6a	-0.0224454
17	0xbd1c413e	-0.038148157
18	0xbce5f933	-0.028072929
19	0xbc23abf3	-0.009989726
20	0x3c67aed5	0.014140804
21	0xbce1b8cd	-0.02755394
22	0x3bb14d1e	0.0054108044
23	0xbca78040	-0.020446897
24	0xbcbce163	-0.023056692
25	0xbd555026	-0.05207839
26	0xbd2897cc	-0.04116039
27	0x3c1a6cf2	0.009425389
28	0x3c638f9a	0.013889218
29	0x3c258e4d	0.010104728
30	0x3c3546e5	0.011064266
31	0xbc3e8562	-0.011628481
32	0xbce4e2d4	-0.027940191
33	0xbd42753d	-0.04747509
34	0x3c58aae8	0.013224341
35	0x3c750e74	0.014957059
36	0xbbfa2be7	-0.007634628
37	0xbc1a72a3	-0.009426746
38	0xbb82090d	-0.003968364
39	0xbc8dbc9f	-0.017301856
40	0xbc5a30b9	-0.01331728
41	0xbbd4aa20	-0.006490007
42	0xbad15bb2	-0.0015972762
43	0x3b90dc77	0.0044208127
44	0x3c9e9703	0.019359117
45	0xbbf0d2f7	-0.0073493677
46	0x3c3a24d3	0.011361319
47	0xbc0475f4	-0.008084763
48	0xbb9b7766	-0.004744458
49	0xbbbde864	-0.0057955254
50	0x3adce9ec	0.0016854382
51	0xbbd9a654	-0.0066421423
52	0xbc0e3eb8	-0.0086819455
53	0x3ca58b33	0.020207977
54	0x3ba4e358	0.0050319843
55	0x3be7bb46	0.0070718853
56	0x3c1856b2	0.0092980135
57	0xbc4881b6	-0.012237957
58	0xbd302625	-0.043005127
59	0xbd1e8409	-0.038700137
60	0xbc82b66d	-0.015956128
61	0x3be3ea6b	0.006955435
62	0x3c21316b	0.009838442
63	0xbc7407cc	-0.014894437
64	0x3b30b15d	0.0026961186
65	0xbc5992db	-0.013279642
66	0xbd0de881	-0.03464556
67	0xbd41213c	-0.047150835
68	0xbc4a59f4	-0.012350548
69	0x3c965bbe	0.018354293
70	0x3b1ee011	0.002424244
71	0x3bb6c11f	0.005577221
72	0xbbee043f	-0.00726369
73	0xbcbd5606	-0.023112308
74	0xbcc44f3e	-0.023963567
75	0xbd214679	-0.03937385
76	0xbadc2506	-0.0016795702
77	0xbc9fd0ee	-0.019508805
78	0xbc95a008	-0.018264785
79	0xbca4d54e	-0.020121243
80	0xbbfa2e89	-0.007634942
81	0xbb904419	-0.004402649
82	0xbd2dc193	-0.042420935
83	0x3c0739f1	0.00825356
84	0xbc4e287a	-0.012582893
85	0xbc9e7106	-0.019341003
86	0x3c2a8009	0.0104065025
87	0x3ab8a389	0.0014086823
88	0x3c3a433c	0.011368569
89	0x3c221153	0.009891826
90	0x3b4577c7	0.0030131207
91	0xbc19f8d2	-0.009397702
92	0xbc93c8ae	-0.018040027
93	0x3c2c9b53	0.010535079
94	0xbca7b689	-0.020472782
95	0xbc538b71	-0.012911663
96	0x3ac06a98	0.0014680205
97	0xbc35afb0	-0.01108925
98	0x3c1c1f8d	0.009529007
99	0x3b496f90	0.0030736662
100	0x3cacf41e	0.021112498
101	0xbc2ca9a9	-0.010538497
102	0xbc4fba1c	-0.012678649
103	0xbc5b9db4	-0.013404299
104	0xba9b464f	-0.0011846515
105	0x3b84c24d	0.004051483
106	0xbc88378c	-0.01662805
107	0x3c8b3bbc	0.016996257
108	0x3cadc38c	0.021211408
109	0x3980501b	0.00024473746
110	0xbb308ca4	-0.0026939297
111	0xbb517f43	-0.0031966723
112	0xbd2b9ce4	-0.04189767
113	0x3aa0bc81	0.001226321
114	0xbb177120	-0.00231082
115	0x3b798d67	0.0038078667
116	0xb9a79388	-0.00031962642
117	0xbb447a8a	-0.0029980266
118	0x3c273501	0.010205508
119	0xbd58c23e	-0.05291962
120	0x3c53d9b3	0.0129303215
121	0xbcaad5ee	-0.020853963
122	0xbc2d182e	-0.010564847
123	0xbc8ae68c	-0.016955636
124	0x3bde03d6	0.0067753596
125	0xbca1345a	-0.019678283
126	0x3c40cdc4	0.011767808
127	0x3c1107d5	0.008851965
128	0xbbc05ed2	-0.0058706785
129	0x3b9ff1e8	0.0048811324
130	0x3c3a7f73	0.011382925
131	0x3cb43eff	0.022002695
132	0xbd1ed1e7	-0.038774397
133	0xbc2ed185	-0.010670071
134	0x3c25883c	0.010103282
135	0xbc5d2503	-0.013497594
136	0x3b61645f	0.0034392101
137	0x3905515e	0.0001271418
138	0x3cbcecf6	0.02306221
139	0xbd126636	-0.035742007
140	0xbc51611e	-0.012779502
141	0x3ca8aa05	0.020588884
142	0x3c07be93	0.0082851825
143	0x3b80cd6a	0.0039307373
144	0x3ca36925	0.019947598
145	0xbd4683fd	-0.048465718
146	0xbc21628e	-0.009850157
147	0xbbc7ef0f	-0.006101496
148	0x39fc0331	0.00048067563
149	0xbbc8863e	-0.0061195185
150	0xbc71975a	-0.014745558
151	0xbbb496ef	-0.0055111567
152	0xbc026a9c	-0.007959988
153	0x3bbfe095	0.0058556297
154	0x3c52464e	0.012834145
155	0xbc5c2ba5	-0.01343814
156	0xbc04caf4	-0.008105028
157	0x3bc59548	0.0060297586
158	0xbc2895d3	-0.010289627
159	0x39915c00	0.000277251
160	0xbc14adf2	-0.009074675
161	0xbc4bcc15	-0.012438794
162	0xbca15344	-0.019693024
163	0xbd323343	-0.04350592
164	0x3c2daf21	0.010600836
165	0xbc20b29a	-0.009808207
166	0xbb542fe1	-0.003237717
167	0xbc7417a9	-0.014898219
168	0x3c4e63e8	0.012597062
169	0x3b1fe8f6	0.002440033
170	0xbcb4d20a	-0.02207281
171	0xbd3ac59d	-0.045598615
172	0x3aec0307	0.0018006273
173	0xbc652d3a	-0.013987834
174	0xbcb75e03	-0.022383695
175	0xbcfb1bcc	-0.030652903
176	0xbcdbc471	-0.026827069
177	0xbbd0323c	-0.0063536447
178	0xbd25b73d	-0.040457953
179	0xbc40f23d	-0.011776504
180	0xbd25c5a6	-0.040471695
181	0x3c3f446e	0.01167403
182	0xbca89072	-0.02057669
183	0xbbfd5bb9	-0.0077318815
184	0xbc9d58b4	-0.019207336
185	0xbc291d0f	-0.0103218695
186	0x3bd16c07	0.0063910517
187	0xbd12a438	-0.035801142
188	0xbb989ced	-0.004657379
189	0xbb2a6129	-0.0025997853
190	0x3c8014ef	0.015634982
191	0x3bf2ca95	0.0074094036
192	0x3beb40c5	0.007179352
193	0xbcbdd53f	-0.023172973
194	0xbc99ac01	-0.018758776
195	0xbbac5dc1	-0.0052602
196	0xbd0d3d7f	-0.034482475
197	0xbc40dd6b	-0.01177154
198	0xbc1c6da3	-0.009547624
199	0xbc0c92ee	-0.008579953
200	0xbc922f48	-0.017844811
201	0x3b326475	0.0027220522
202	0xba9d3a50	-0.0011995528
203	0xbc9e8a59	-0.019353079
204	0xbd3d4428	-0.046207577
205	0xbcf92902	-0.030415062
206	0xbcb8d185	-0.022560844
207	0xbb58394c	-0.0032993136
208	0xbba86e1e	-0.00514008
209	0x3b42500f	0.002964977
210	0xba67df26	-0.00088452024
211	0xbd5cbe08	-0.053892165
212	0xbcbe20ca	-0.023208994
213	0xbc18f9f6	-0.009336939
214	0xbc62997e	-0.013830541
215	0xbc4d6d87	-0.01253832
216	0x3c88e21f	0.016709385
217	0xbcc12377	-0.023576481
218	0xbae2e465	-0.0017310499
219	0xbcef5797	-0.02921657
220	0xbb2fff22	-0.0026854952
221	0xbd16628f	-0.036715087
222	0xbce69be7	-0.028150512
223	0xbb032225	-0.0020009365
224	0xbcd7ed6c	-0.026358329
225	0x3c3a9eea	0.011390427
226	0xbc92a07a	-0.017898787
227	0xbd4c4849	-0.049873624
228	0xbbc65f43	-0.0060538366
229	0xba98f658	-0.0011670096
230	0xbc85b16b	-0.016319951
231	0x3c273d5c	0.0102075
232	0x3b337896	0.0027385107
233	0xbc939422	-0.018014971
234	0x3c03a848	0.008035727
235	0xbd11a848	-0.035560876
236	0x3be8eee9	0.0071085584
237	0x3b5f542f	0.0034077277
238	0xbc57242b	-0.013131182
239	0xbba03c1e	-0.004889979
240	0xbbc76897	-0.006085466
241	0xbd0bac96	-0.034100138
242	0xbc83aeb9	-0.016074525
243	0x3ade983e	0.0016982628
244	0xbc013aa9	-0.007887521
245	0xbc5e4218	-0.013565563
246	0x3be36afa	0.006940243
247	0xbc024840	-0.007951796
248	0x3cad43d5	0.021150509
249	0x3b9f2563	0.0048567518
250	0xbbde8cd9	-0.0067916927
251	0xbc3a16db	-0.011357988
252	0xbab89e32	-0.0014085232
253	0xbca189de	-0.01971906
254	0xbc209e34	-0.009803344
255	0xbd11d015	-0.035598833

layer3.0.bias f4 [64]
0	0xbd2bb625	-0.041921753
1	0xbea628af	-0.32452914
2	0xbdb46e4e	-0.088101014
3	0x3e8cbb3a	0.27486593
4	0x3c2b11a9	0.010441222
5	0x3e02a18b	0.12756936
6	0xbd2c6cc8	-0.04209593
7	0xbc913f3c	-0.017730348
8	0x3b6885c0	0.0035480112
9	0xbb557b82	-0.0032574837
10	0x3db3468c	0.0875369
11	0xbd9256a9	-0.07145435
12	0x3dba5aec	0.09099373
13	0x3c2c823e	0.010529099
14	0x3dd00481	0.10157109
15	0x3dc59bed	0.09648881
16	0xbdc6ed76	-0.09713261
17	0xbd41e410	-0.047336638
18	0xbda0754e	-0.07834874
19	0x3d5bd290	0.053667605
20	0xbc52cdcc	-0.012866449
21	0xbdf3be63	-0.11901548
22	0xbb38129c	-0.0028087264
23	0x3c0022ec	0.007820826
24	0xbdd147f0	-0.10218799
25	0xbcf0aa8d	-0.0293782
26	0x3e2650fd	0.16241832
27	0xbae569ac	-0.0017502806
28	0xbc9a9787	-0.018871082
29	0xbcac2e04	-0.021018036
30	0xbcbc33b6	-0.022973876
31	0x3c009c06	0.007849699
32	0xbe666c00	-0.22502136
33	0x3c26a286	0.010170585
34	0xbca818c7	-0.020519627
35	0xbcf1c40c	-0.029512428
36	0x3d8352a0	0.06412244
37	0xbc21381b	-0.009840037
38	0xbb20e298	-0.0024549123
39	0xbe2dfbc5	-0.16990574
40	0x3d6ef344	0.058337465
41	0x3b68921c	0.0035487479
42	0x3abdc549	0.0014478351
43	0xbc465c7d	-0.012107012
44	0x3d472d80	0.048627377
45	0xbbdf3554	-0.006811777
46	0x3bc114d1	0.005892374
47	0xbad17c92	-0.0015982559
48	0xbd50b2ca	-0.050951757
49	0xbd5f6774	-0.05454202
50	0xbc49ad8a	-0.012309441
51	0xbbbc6b44	-0.0057500917
52	0xbc937a41	-0.018002631
53	0x3dc71dc5	0.09722475
54	0xba21cc0d	-0.00061720685
55	0xbc7a49df	-0.015276401
56	0xbc8e1e6f	-0.017348496
57	0xbbe66dfd	-0.0070321546
58	0x3b968226	0.0045931516
59	0x3b99ea37	0.00469711
60	0xbc9862f2	-0.018601868
61	0x3d9541a3	0.0728791
62	0x3bb3f8e3	0.005492316
63	0x3b5a49e1	0.0033308195

layer3.3.weight f4 [10, 64]
0	0xbdc615b4	-0.09672108
1	0xbec0f67f	-0.37688062
2	0x3d61e8ce	0.05515366
3	0xbee17000	-0.44030762
4	0xbd97f83a	-0.07420392
5	0xbea44b16	-0.32088536
6	0x3dc9087a	0.0981607
7	0x3d23c763	0.039985072
8	0xbe99fcd6	-0.3007571
9	0x3c9e1373	0.019296383
10	0x3e8bc2ee	0.27297157
11	0xbd14ea2f	-0.036356147
12	0x3e2cf2a3	0.16889434
13	0xbf04665c	-0.5171869
14	0xbe6246ac	-0.22097272
15	0xbf0cd4e9	-0.55012375
16	0x3de4f8f1	0.11180294
17	0xbebb31d1	-0.36561444
18	0xbf139576	-0.57649934
19	0x3e2ada00	0.16684723
20	0xbd4c9561	-0.049947146
21	0x3e8b83aa	0.2724889
22	0xbdbba93f	-0.091631405
23	0x3d9e89a6	0.07741098
24	0x3c01cda5	0.007922565
25	0x3e7e4e2f	0.24834512
26	0x3e631828	0.22177184
27	0xbca7bacc	-0.020474814
28	0x3cf3f400	0.029779434
29	0xbcf296a0	-0.02961284
30	0xbdd966f6	-0.10615341
31	0x3dd1948d	0.10233412
32	0xbe44eb6a	-0.19230428
33	0xbd3dbdb4	-0.046323493
34	0x3c99107d	0.01868462
35	0xbed85a9a	-0.42256624
36	0x3e7c8045	0.24658306
37	0x3dd9adc1	0.10628844
38	0x3ac6b4df	0.0015160105
39	0xbf167c4f	-0.5878343
40	0x3e301979	0.17197217
41	0x3dd8aa4e	0.10579358
42	0xbc885aac	-0.016644798
43	0xbcf60375	-0.030030945
44	0x3e19905c	0.14996475
45	0xbca573a8	-0.02019675
46	0xbc233a68	-0.009962656
47	0x3db310aa	0.08743413
48	0xbe4aaa32	-0.19791487
49	0xbf0a243f	-0.5396156
50	0xbde23aef	-0.11046397
51	0x3d7098c4	0.05873944
52	0xbde080f7	-0.10962098
53	0x3dcdf331	0.10056151
54	0xbd676749	-0.056494985
55	0x3deb4c88	0.114892066
56	0x3d882a73	0.066487215
57	0xbbf8fed3	-0.007598737
58	0xbd6b292e	-0.05741232
59	0xbdebb99b	-0.11510011
60	0xbdd72f74	-0.10507098
61	0x3e7063f1	0.23475625
62	0x3d1c8f9c	0.038222894
63	0xbcedf333	-0.02904663
64	0x3c8c0198	0.017090604
65	0xbeeaae13	-0.45835933
66	0xbebbfc28	-0.36715817
67	0x3e99a099	0.3000534
68	0x3dcc42c8	0.09973675
69	0x3e9aeb21	0.30257514
70	0x3dca0df6	0.09865944
71	0x3d61f184	0.055161968
72	0xbdd08aa4	-0.101826936
73	0xbd446269	-0.047945414
74	0xbed57fef	-0.41699168
75	0x3cdec12a	0.027191717
76	0x3e2e687c	0.17032045
77	0x3e6f83e7	0.2339016
78	0x3e5586e1	0.20852233
79	0x3e9184fd	0.28421775
80	0xbd559471	-0.052143518
81	0x3e928a99	0.28621367
82	0xbf0d1f15	-0.5512555
83	0xbefda4d3	-0.49539813
84	0x3d55bcab	0.05218188
85	0xbe9bea52	-0.3045221
86	0x3dc31d3c	0.095270604
87	0x3d90e195	0.07074276
88	0xbecf3105	-0.40467086
89	0xbe5d4e47	-0.21611892
90	0x3e43e5c6	0.1913062
91	0x3db0931b	0.08621808
92	0x3da0dc46	0.07854514
93	0xbd5a750d	-0.053334285
94	0xbd6c67b0	-0.05771607
95	0x3db84938	0.0899834
96	0xbefab96b	-0.48969588
97	0xbd3fae64	-0.04679717
98	0x3dcbc7e0	0.099502325
99	0x3db40c62	0.08791424
100	0xbdcd1e78	-0.10015577
101	0x3dd7fb17	0.105459385
102	0xbdbd4df0	-0.09243381
103	0xbec1b4d8	-0.37833285
104	0xbeb05ef1	-0.34447435
105	0xbdecb452	-0.11557831
106	0xbd86e08d	-0.065857984
107	0xbd9217d2	-0.071334496
108	0x3e847426	0.25869864
109	0xbdc7117d	-0.097201325
110	0xbbef794e	-0.007308162
111	0xbdd3cc50	-0.10341704
112	0xbeb386d9	-0.35063818
113	0xbd3bf036	-0.04588338
114	0xbdabd3a3	-0.08389976
115	0x3d99f50f	0.07517444
116	0xbd98b95e	-0.07457231
117	0xbe1b520e	-0.1516802
118	0xbdb51969	-0.08842737
119	0x3d2610c1	0.04054332
120	0x3dc29201	0.09500504
121	0xbdce25c1	-0.10065795
122	0xbd099102	-0.033585556
123	0xbc9f2884	-0.019428499
124	0x3e039595	0.1285003
125	0x3e2aa08a	0.16662803
126	0x3dcc2c2d	0.09969363
127	0xbdc08558	-0.09400433
128	0xbd84da72	-0.06486978
129	0x3e531f60	0.20617437
130	0x3d8e5424	0.06949642
131	0x3e5dd54a	0.21663395
132	0xbddb2205	-0.10699848
133	0xbe8082e1	-0.25099853
134	0x3dcf9e7b	0.101376496
135	0x3c9016bc	0.017588966
136	0x3e86059e	0.2617616
137	0xbdb1c0e7	-0.08679371
138	0xbf1065c4	-0.5640528
139	0x3dbc7af9	0.09203143
140	0xbf1b1297	-0.6057524
141	0xbec4d0ae	-0.3844046
142	0x3e9a4a11	0.30134633
143	0xbe144942	-0.1448107
144	0xbf24858b	-0.6426627
145	0x3db5929f	0.088658564
146	0xbdad2293	-0.0845386
147	0x3d95d4b0	0.073159575
148	0x3bd89d45	0.006610545
149	0x3ea8fa67	0.33003542
150	0x3cb785e6	0.022402715
151	0x3de07c24	0.10961178
152	0xbea96349	-0.3308356
153	0x3e205b9b	0.15659945
154	0xbe8add7b	-0.271221
155	0x3e046b71	0.1293161
156	0x3de117cd	0.10990868
157	0xbdc08935	-0.0940117
158	0xb87b20f3	-5.987375e-05
159	0x3ceb6023	0.028732365
160	0xbec95db0	-0.3932929
161	0xbda90e29	-0.08254654
162	0xbda8a4c8	-0.082345545
163	0xbe8defb5	-0.27721944
164	0xbe5fc2ed	-0.21851702
165	0x3bdde2fe	0.0067714443
166	0xbd94a909	-0.072588034
167	0xbf010a8d	-0.50406724
168	0x3e48c5f8	0.19606769
169	0x3d8364a0	0.06415677
170	0xbd946883	-0.072464965
171	0xbd2780d7	-0.040894356
172	0x3e7b3224	0.24530846
173	0x3d485e95	0.048918325
174	0xbddbb133	-0.107271574
175	0xbdf1fa9a	-0.118153766
176	0x3b139e38	0.0022524726
177	0x3e33ee80	0.1757145
178	0x3d5ebf56	0.05438169
179	0x3d7e1cd4	0.06203921
180	0xbd33be35	-0.043882567
181	0x3e647562	0.22310403
182	0xbd78db17	-0.060755815
183	0x3c9561ec	0.01823517
184	0xbba22c3f	-0.004949122
185	0x3d576d4d	0.05259447
186	0x3d9a4279	0.0753221
187	0xbd0e6f87	-0.03477433
188	0x3d95b97e	0.073107705
189	0x3d5ea1cd	0.054353524
190	0xbdf2fda9	-0.11864788
191	0xbd4bacd5	-0.049725372
192	0x3da9d269	0.08292086
193	0xbea6d08c	-0.32580984
194	0xbeeff287	-0.4686472
195	0xbe0f7452	-0.14009216
196	0x3dea0b8b	0.11427983
197	0xbe6f6a7c	-0.23380464
198	0x3d99fc87	0.07518869
199	0xbd06d563	-0.032918345
200	0xbe108ec2	-0.14116958
201	0x3d36dd3f	0.04464459
202	0xbef40cb6	-0.47665948
203	0x3e0afd58	0.13573205
204	0xbf142546	-0.57869375
205	0xbf014128	-0.50490046
206	0xbe9a0a53	-0.30086002
207	0xbe859490	-0.26089907
208	0xbeb7fe3f	-0.35936162
209	0xbe9c10fc	-0.30481708
210	0x3e650c8f	0.22368072
211	0xbeb0d035	-0.3453385
212	0xbc1a3948	-0.009413071
213	0xbea21615	-0.31657472
214	0x3ded2ae2	0.11580445
215	0x3d9bb6c1	0.07603217
216	0xbedec8fb	-0.4351271
217	0xbe7af012	-0.24505642
218	0x3e3ad69d	0.18245931
219	0xbd1c69b6	-0.03818675
220	0xbbbef0b8	-0.0058270358
221	0x3ad45767	0.0016200364
222	0xbe0180a2	-0.12646726
223	0xbdd843f9	-0.1055984
224	0xbec827b1	-0.39092782
225	0x3dbc0411	0.09180463
226	0x3a760429	0.0009384775
227	0x3e92b7df	0.28655908
228	0x3e4a1e56	0.19738135
229	0xbca38ca2	-0.01996452
230	0x3c654643	0.0139938025
231	0x3e69c6c2	0.22829726
232	0xbe98c2ad	-0.29836026
233	0xbb680a43	-0.0035406507
234	0x3d8efd38	0.069818914
235	0xbde998f4	-0.114061266
236	0x3e79944c	0.24372977
237	0xbde8aecc	-0.11361465
238	0xbdbfac4d	-0.09359036
239	0x3df02085	0.117249526
240	0x3e376319	0.17908897
241	0x3e58f52d	0.21187277
242	0xbda9a0d0	-0.08282626
243	0x3dd9befe	0.10632132
244	0xbda5e05e	-0.08099435
245	0x3e7c47f4	0.24636823
246	0xbdf339e2	-0.11876275
247	0x3d925272	0.071446314
248	0x3d953caa	0.072869614
249	0x3d9e8cef	0.07741725
250	0x3cd6d5ad	0.026224935
251	0x3d294b79	0.041331742
252	0x3dd73c27	0.1050952
253	0xbea5c7c6	-0.32378978
254	0x3d816a8f	0.063191526
255	0xbda3d6d1	-0.07999957

layer3.3.bias f4 [10]
0	0xbf054a45	-0.5206645
1	0x3f1ca782	0.61193097
2	0xbe3ae4d1	-0.18251349
3	0x3eff48fd	0.49860373
4	0x3d40b9cc	0.04705219
5	0xbe7ed1d4	-0.2488473
6	0xbe7c6903	-0.24649434
7	0xbd7f43b1	-0.062320415
8	0xbea6102e	-0.3243422
9	0x3e9d8c9d	0.30771342

onnx::Conv_33 f4 [16, 1, 3, 3]
0	0xbf1e1274	-0.6174691
1	0xbf276358	-0.6538596
2	0x3fb53a0b	1.4158338
3	0xbf7c0353	-0.9844257
4	0x3e25cb94	0.1619094
5	0x3f67a4dd	0.90485936
6	0x3eb3f5dc	0.35148513
7	0x3f83597f	1.0261687
8	0x3f9774c2	1.1832507
9	0xbe678997	-0.2261108
10	0x3ffa1d27	1.9540147
11	0x401a8d23	2.4148643
12	0x3fddcf3d	1.7328869
13	0x3f33d36c	0.7024448
14	0xbfd897ea	-1.692136
15	0x3f5ffddf	0.8749675
16	0xbf86a650	-1.0519505
17	0xbf7f3986	-0.9969715
18	0xbe0d3029	-0.13787903
19	0xbec40c54	-0.38290656
20	0xbf54a912	-0.8307048
21	0x3fd5bb3e	1.6697767
22	0xbef9f95d	-0.48823062
23	0x3e9fd461	0.3121672
24	0x3e9f42b0	0.31105566
25	0xbfbd61a5	-1.4795424
26	0x3d67dfb5	0.056609828
27	0x3e47b4fa	0.19502631
28	0x3fc83f9e	1.5644414
29	0xbfbb7ca9	-1.4647418
30	0x3f4101c4	0.7539332
31	0x3f8b6fe8	1.0893526
32	0x3f1c9e97	0.6117949
33	0xbf50c96c	-0.81557345
34	0x3f014597	0.5049681
35	0x3d68de83	0.05685283
36	0xbfbd40a7	-1.4785355
37	0xbe08be61	-0.13353874
38	0x3dc52eb7	0.09628051
39	0xbe15586a	-0.14584509
40	0xbdab9ab1	-0.083791144
41	0x3fb42dd0	1.4076481
42	0x3da9c0f4	0.08288756
43	0xbf246da3	-0.6422979
44	0xbfb49d6e	-1.4110544
45	0x3fb1c4d1	1.3888189
46	0x3fa69e05	1.3016974
47	0x3dce34b1	0.10068644
48	0x3f9adbcb	1.2098325
49	0xbf941485	-1.1568762
50	0xbf41dc73	-0.75727004
51	0x3f8a1943	1.0788959
52	0x3c938069	0.018005567
53	0xbe9065e3	-0.28202733
54	0x3f99bdfd	1.2011105
55	0x3fd4cb2e	1.6624506
56	0x3f971dea	1.1806004
57	0xbf42bd7d	-0.76070386
58	0xbf368bf2	-0.7130729
59	0x3ff9c91d	1.95145
60	0xbf4634f5	-0.77424556
61	0xbf734b2b	-0.9503657
62	0x3fa64c02	1.2991946
63	0xbec3b0da	-0.38220865
64	0xbfae7794	-1.3630242
65	0x3fa104a6	1.2579544
66	0x3f9ab4a7	1.2086381
67	0xc016bc3d	-2.3552392
68	0xbee1db76	-0.44112748
69	0x3fd703c0	1.679802
70	0x3eba87e3	0.36431798
71	0xbf8eb22b	-1.1148123
72	0x40151448	2.3293629
73	0x3e216f6f	0.15765165
74	0xbfb0c78e	-1.3810899
75	0xbf7c86a9	-0.98642975
76	0xbfeff905	-1.874787
77	0x3fab62d7	1.3389539
78	0xbd83e43c	-0.064400166
79	0xbd8549b5	-0.06508199
80	0x3fee8c17	1.8636502
81	0xbe52c608	-0.20583355
82	0xbf7388d2	-0.95130646
83	0x3f28e9e6	0.659819
84	0x3f6cce99	0.92502743
85	0xbfac458d	-1.3458725
86	0x3ff71f9f	1.9306525
87	0xbf433e11	-0.7626658
88	0xbf749f86	-0.95555913
89	0x3f690b1b	0.9103257
90	0xbd857b77	-0.0651769
91	0xbd98f5f0	-0.07468784
92	0xbe453dd3	-0.19261865
93	0xbfb51954	-1.4148355
94	0xbf80723d	-1.0034863
95	0x3e99c30a	0.30031615
96	0x3fc48404	1.5352788
97	0x3f873562	1.0563166
98	0x3f794820	0.9737568
99	0x3fd80f58	1.6879683
100	0xbfbb436b	-1.4629949
101	0xbf55fd66	-0.8358978
102	0x400a9dd6	2.1658835
103	0x3ff1a072	1.8877089
104	0x3fdf2a60	1.7434807
105	0xbf591228	-0.8479333
106	0x3f4ece85	0.80783874
107	0xbdbacd2c	-0.09121165
108	0xbe0f613e	-0.14001939
109	0xbe82096b	-0.2539781
110	0xbf73bb4c	-0.9520767
111	0xbf51ec1f	-0.8200092
112	0xbefca867	-0.4934723
113	0xbe3d5938	-0.18491066
114	0x3f715874	0.94275594
115	0x3fc9a8ad	1.5754601
116	0x3df31a8e	0.11870299
117	0xbed98ac9	-0.42488697
118	0x3fbe3b9a	1.4861939
119	0x3da30a9d	0.07961009
120	0xbfc6d872	-1.5534804
121	0xbeb8cdff	-0.36094663
122	0xbfa8bbe0	-1.3182335
123	0x3ebcb436	0.3685624
124	0x3e743576	0.23848519
125	0x3c8078b6	0.01568256
126	0x3ea67539	0.3251131
127	0xbeb35fbf	-0.35033986
128	0xbeaee992	-0.34162575
129	0x3e93490c	0.28766668
130	0xbd919154	-0.07107797
131	0xbde95c0a	-0.11394508
132	0xbf5e7d7d	-0.8691023
133	0xbdf9ffa7	-0.12206965
134	0xbeb50086	-0.35351962
135	0x3ebdb866	0.37054747
136	0x3f659c82	0.89691937
137	0x3fd69014	1.6762719
138	0xbf750e14	-0.95724607
139	0xbe1a6a78	-0.15079677
140	0xbeeebb6f	-0.46627375
141	0xbf0d4e92	-0.55198014
142	0xbef7d0b9	-0.4840143
143	0xbf366be0	-0.71258354

onnx::Conv_34 f4 [16]
0	0xc01c7379	-2.444548
1	0xc05c57f2	-3.4428678
2	0x3e204258	0.15650308
3	0xc01a6085	-2.412141
4	0x3f851624	1.0397382
5	0xc02c5ef1	-2.6932948
6	0xc0622726	-3.5336394
7	0x3dd29f00	0.10284233
8	0xbf764c44	-0.9621012
9	0xbf2a2eb2	-0.664775
10	0xbf96747b	-1.1754297
11	0xc08e627d	-4.4495225
12	0xbd51dde0	-0.051236987
13	0x3f105420	0.56378365
14	0x3f31cfd0	0.6945772
15	0x3cda8240	0.026673436

onnx::Conv_36 f4 [64, 16, 3, 3]
0	0xbd33a7d3	-0.04386122
1	0xbd187d5a	-0.03722892
2	0xbdfb6c8a	-0.122765616
3	0xbe0dc5fd	-0.13845058
4	0xbdd6ad5a	-0.10482283
5	0xbc86eb7d	-0.016469711
6	0xbe17d4a8	-0.14827216
7	0xbe56b41e	-0.20967147
8	0xbdb4363d	-0.08799408
9	0x3db4b28c	0.088231176
10	0x3d87d7cd	0.066329576
11	0xbb6978f6	-0.0035625077
12	0xbdc00e8c	-0.093777746
13	0xbd85e0e8	-0.06537038
14	0x3e01a343	0.12659936
15	0xbdc19465	-0.09452132
16	0xbe216c03	-0.1576386
17	0xbd23c86d	-0.039986063
18	0xbe00d4e4	-0.12581211
19	0x3c97d742	0.01853526
20	0x3d08a734	0.033362582
21	0x3ba02641	0.0048873727
22	0xbcd8ec9f	-0.026480017
23	0xbd67f732	-0.05663223
24	0x3d27e654	0.040991142
25	0x3b85b012	0.004079827
26	0xbd3f603a	-0.04672263
27	0xbd866a7b	-0.06563278
28	0x3d32f316	0.043688856
29	0x3e192788	0.14956486
30	0xbcba61a5	-0.022751639
31	0x3d0892b7	0.033343043
32	0xbdc022e9	-0.093816586
33	0xbd56d1a1	-0.05244601
34	0xbd52aade	-0.051432483
35	0x3cc8d6e2	0.024516527
36	0xbc569617	-0.013097308
37	0xbd1f0827	-0.038826134
38	0x3d1587a0	0.036506295
39	0x395783a8	0.00020553044
40	0xbd013790	-0.03154713
41	0xbd0cb149	-0.03434876
42	0x3c396d65	0.011317586
43	0xbc7f76f7	-0.015592328
44	0xbd8b3dc7	-0.067988925
45	0xbc86bc26	-0.016447138
46	0xbd306b61	-0.043071155
47	0xbd7e7d2d	-0.062131096
48	0x3d22438d	0.039615203
49	0xbc2607d7	-0.010133705
50	0x3dcab60a	0.098980024
51	0xbdafdaa6	-0.08586626
52	0xbdd79fcd	-0.105285265
53	0xbca2455f	-0.01980847
54	0x3d236448	0.039890558
55	0x3de888ca	0.113542154
56	0x3d9d51bd	0.07681606
57	0x3dfa8daa	0.122340515
58	0xbd37f75b	-0.04491363
59	0xbe5b9dac	-0.21446866
60	0xbd432193	-0.04763944
61	0x3cd53971	0.026028367
62	0x3d459002	0.04823304
63	0xbdc4dcf5	-0.09612457
64	0xbd833b43	-0.06407788
65	0xbc271584	-0.010198001
66	0x3d8874e6	0.066629216
67	0x3dc733f2	0.09726705
68	0xbdce1688	-0.10062891
69	0x3d0f0207	0.034914043
70	0xbd2182f0	-0.039431512
71	0xbc72309a	-0.014782095
72	0x3c83ca30	0.016087621
73	0x3dda5e90	0.106625676
74	0xbc88a05f	-0.016678033
75	0xbe0b072b	-0.13576953
76	0xbe2da381	-0.16956903
77	0xbd48c417	-0.04901513
78	0xbe23377e	-0.15939137
79	0xbdcdceef	-0.10049235
80	0x3dd5135d	0.10404084
81	0xbdda78e7	-0.106675915
82	0x3d403c62	0.046932586
83	0xbdd129e9	-0.10213072
84	0xbe13f245	-0.14447887
85	0xbd8d617d	-0.0690336
86	0xbe3ded35	-0.18547519
87	0xbe3b7219	-0.18305244
88	0xbe2d1ec3	-0.16906266
89	0x3b014d61	0.001972996
90	0x3da2fcb3	0.07958355
91	0xbd0b9bea	-0.034084238
92	0xbdd26de7	-0.102748685
93	0xbc9983bc	-0.018739574
94	0x3ca6e51b	0.020372918
95	0x3cf65330	0.030068964
96	0xbdfd76ec	-0.12376198
97	0xbdd292f3	-0.102819346
98	0x3d260c29	0.04053894
99	0x3c8b8ea2	0.017035786
100	0x3e15a2c3	0.1461287
101	0x3d81bca9	0.06334812
102	0x3d3a3a03	0.04546548
103	0x3c827a93	0.015927589
104	0xbdad568d	-0.08463774
105	0xbd7e7834	-0.062126353
106	0xbd7c873f	-0.06165242
107	0x3daff92e	0.08592449
108	0x3c85ab5b	0.01631706
109	0xbd47bba5	-0.048762936
110	0x3a601ac0	0.0008548908
111	0xbc9b14bb	-0.018930783
112	0xbd09b89a	-0.033623315
113	0xbd974141	-0.07385493
114	0xbdfee616	-0.12446229
115	0xbc4b54c3	-0.0124103455
116	0x3da7c48d	0.08191786
117	0x3d9f1863	0.07768323
118	0xbd5a2ebc	-0.053267226
119	0x3dc301e7	0.09521847
120	0x3db6c380	0.089240074
121	0x3e048c51	0.12944151
122	0x3e6f83df	0.23390149
123	0x3cb5de5c	0.022200756
124	0x3e4c9991	0.19980456
125	0x3e02bf08	0.12768185
126	0x3c839890	0.016063958
127	0xbd147247	-0.036241796
128	0xbc29e7a9	-0.0103701735
129	0xbd44baa3	-0.048029553
130	0xbbf9dff3	-0.007625574
131	0x3d0e1bc4	0.034694448
132	0x3d9f7d08	0.0778752
133	0x3e0aca2a	0.13553682
134	0x3d423dc5	0.04742219
135	0x3dd4bd99	0.103877254
136	0x3e386649	0.18007769
137	0x3e0e91ae	0.1392276
138	0xbc704eaf	-0.014667197
139	0x3c83b5a0	0.016077816
140	0x3d490795	0.049079496
141	0xbe03cd7f	-0.1287136
142	0xbd776a30	-0.060404003
143	0xbdf386c0	-0.11890936
144	0xbd4c8e28	-0.04994026
145	0xbc2a0832	-0.0103779305
146	0x3c97fa2f	0.018551914
147	0x3d0fef2f	0.035140213
148	0xbdf7c904	-0.120988876
149	0xbdd09599	-0.101847835
150	0xbda3dbd9	-0.08000917
151	0x3d97d5a2	0.07413794
152	0x3b7af799	0.0038294552
153	0x3d273312	0.04082019
154	0xbcabbe2c	-0.020964704
155	0x3d49b24b	0.0492423
156	0xbe0eb8bf	-0.13937663
157	0xbe0c56bd	-0.13704963
158	0x3e0e2a2b	0.13883273
159	0xbe128767	-0.14309464
160	0xbdcdeac7	-0.10054546
161	0x3c620e72	0.013797389
162	0xbd90240a	-0.07038124
163	0xbe009e65	-0.12560423
164	0xbe1d72c9	-0.15375818
165	0xbde67a85	-0.112538375
166	0x3d61de18	0.055143446
167	0xbe2d6acb	-0.1693527
168	0x3e22bbc8	0.15891945
169	0x3e23db57	0.1600164
170	0xbd99ec81	-0.07515813
171	0xbe627f3e	-0.22118852
172	0x3e3cec5a	0.18449536
173	0x3d17f01f	0.03709423
174	0xbe3d274e	-0.18472025
175	0x3d9320dc	0.07184002
176	0xbe1e90e8	-0.15484965
177	0x3e85dc46	0.26144618
178	0x3db91816	0.09037797
179	0xbd233a42	-0.03985048
180	0xbcc4f95a	-0.024044681
181	0x3b21515d	0.0024615147
182	0xbe1bb0ea	-0.15204206
183	0xbce75f5c	-0.028243713
184	0x3a7b8e12	0.000959606
185	0xbda0ce87	-0.07851892
186	0xbbf87d7a	-0.0075833173
187	0x3b577f70	0.0032882355
188	0x3c1ec4ef	0.009690507
189	0xbdd8e022	-0.10589625
190	0xbe30cf92	-0.17266682
191	0xbdeccb14	-0.115621716
192	0xbd3957d5	-0.04524978
193	0x3b657253	0.003501077
194	0x3c1d9758	0.009618603
195	0xbda7dc55	-0.08196322
196	0x3d9db185	0.07699875
197	0xbe0a7df7	-0.13524614
198	0xbdd56ca1	-0.1042111
199	0x3e1b45d4	0.15163356
200	0x3e59dd39	0.21275796
201	0x3e785886	0.24252519
202	0x3e5fc8d2	0.2185395
203	0x3e4d75e1	0.20064498
204	0x3d93eaab	0.07222494
205	0x3d80fb0c	0.062978834
206	0xbd9364ea	-0.07196982
207	0xbe226757	-0.15859734
208	0xbbc38e9e	-0.005967929
209	0x3d091e8d	0.0334764
210	0x3e38203a	0.17981043
211	0x3eb47372	0.35244328
212	0xbdbd09bf	-0.092303745
213	0x3e3d1b2b	0.18467395
214	0x3e7515ba	0.2393407
215	0xbdd6248f	-0.10456192
216	0x3e289a73	0.16465168
217	0x3d8e40c9	0.069459505
218	0x3b9977d3	0.0046834736
219	0xbde54199	-0.111941524
220	0xbd3391d2	-0.043840237
221	0xbe896ccc	-0.26840818
222	0xbd9c83d9	-0.076423354
223	0xbce0802b	-0.027404865
224	0x3d9bcdc0	0.07607603
225	0xbd56c5d6	-0.052434765
226	0xbd0f6db0	-0.035016716
227	0xbc04c7e1	-0.0081042955
228	0xbe077976	-0.13229927
229	0xbd7e3e62	-0.06207121
230	0xbdf98f41	-0.12185527
231	0xbd3e9bd7	-0.04653534
232	0x3dfebdf8	0.124385774
233	0xbe1fb556	-0.15596518
234	0x3dbabb6a	0.09117778
235	0x3d1a8418	0.03772363
236	0x3dd4106f	0.10354697
237	0x3db4d164	0.088290006
238	0xbea462f9	-0.3210676
239	0xbe5d328e	-0.21601316
240	0xbe2c48d8	-0.16824663
241	0xbe3aef70	-0.182554
242	0xbdcefcbf	-0.10106801
243	0xbddcd8ee	-0.107835636
244	0x3de9c83a	0.11415143
245	0x3e6fdce8	0.23424113
246	0xbd04797e	-0.032342426
247	0x3d4feb26	0.050761364
248	0x3d3f486b	0.046699923
249	0x3d9c252b	0.07624277
250	0xbdbe9993	-0.09306636
251	0xbe2a4719	-0.16628684
252	0xbc9749be	-0.01846778
253	0x3ddc6d66	0.107630536
254	0xbc06967a	-0.008214587
255	0x3dd12550	0.10212195

onnx::Conv_37 f4 [64]
0	0xbe412020	-0.18859911
1	0xbf6de540	-0.9292793
2	0xbf800dbe	-1.0004194
3	0xbf14bf60	-0.58104515
4	0xbec76d29	-0.3895047
5	0xbf36b0ca	-0.7136351
6	0x3ef43044	0.47693074
7	0xbe90164a	-0.28142005
8	0xbf5fb9c1	-0.8739281
9	0xbf9ec50c	-1.2403884
10	0xbf4f2480	-0.8091507
11	0x3e2def58	0.16985834
12	0xbf6d2c3f	-0.9264564
13	0x3e7d6ca8	0.2474848
14	0xbdabcb00	-0.083883286
15	0x3de1fac0	0.11034155
16	0xbed90ee0	-0.4239416
17	0xbf29ab97	-0.6627745
18	0x3cfa4720	0.030551493
19	0x3d6ea540	0.058263063
20	0x3f38f58c	0.72249675
21	0xbefd49e7	-0.49470446
22	0x3d72b0d0	0.059250653
23	0xbf84331d	-1.0328099
24	0xc02668c7	-2.600145
25	0x3e93ae10	0.28843737
26	0xbf328e26	-0.6974815
27	0xbf2cae96	-0.67453897
28	0x3e9588ea	0.2920602
29	0xbf0cc630	-0.5498991
30	0x3dae6ef0	0.085172534
31	0xbf3c779e	-0.7362002
32	0x3e8054c6	0.25064677
33	0xbf29a674	-0.6626961
34	0xbf90cc76	-1.1312397
35	0x3f35f3f9	0.710754
36	0x3f00bae6	0.50285184
37	0xbd95f1c8	-0.07321507
38	0xbfc58423	-1.543095
39	0xc008d51a	-2.1380067
40	0xbf0fcdaa	-0.56173193
41	0xbf731935	-0.9496034
42	0x3f26c182	0.6513902
43	0xbeac983f	-0.33709905
44	0xbe7a8aca	-0.24467006
45	0xc00cf25c	-2.2022924
46	0xbe9369f8	-0.28791785
47	0xbf15cc1f	-0.5851459
48	0xbf0299cf	-0.51015943
49	0x3d8ecd50	0.06972754
50	0xbec39b60	-0.3820448
51	0xbd5f7090	-0.054550707
52	0xbf34bb4a	-0.7059828
53	0xbfd53e27	-1.6659592
54	0xbefe5760	-0.49676037
55	0xbfb608e8	-1.4221468
56	0xbf3860b4	-0.7202256
57	0x3e6f2cf8	0.23356998
58	0xbf12a788	-0.5728688
59	0xbf9d8e81	-1.2309114
60	0xbea59c24	-0.32345688
61	0xc000f7f2	-2.0151334
62	0xbef5745d	-0.4794034
63	0xbfe0e7a4	-1.7570691
