tensorflow/tf_model.onnx (onnx, 27392 bytes, 4 tensors)

StatefulPartitionedCall/sequential/dense_1/MatMul/ReadVariableOp:0 f4 [8, 10]
000000 86 b2 84 be 30 15 8d bf fc 54 d5 be 38 81 fc 3e
       -0.25917453 -1.1022091 -0.416664 0.49317336
000010 23 fc 0e bf 8e 2e 03 3e 61 98 73 bf 86 5e 59 3f
       -0.5585348 0.12810728 -0.95154387 0.84909856
000020 a6 0e b5 be fd 57 e5 3e 43 8b 2e 3f d8 6f a4 3c
       -0.35362738 0.44793692 0.68181247 0.020072863
000030 89 46 ed 3d 1e 5c 08 3f 1a bd 8f bf 7d 4f 51 3f
       0.11585719 0.5326556 -1.1229584 0.81761914
000040 b2 66 5b be 12 fc 8f bf d3 fe c9 3d 17 4b 4a bf
       -0.21425894 -1.1248801 0.09863057 -0.7902083
000050 5c 91 17 bf 8c eb 5c 3f 2e f4 a9 3d 18 8f 8f 3e
       -0.59206176 0.86296916 0.08298527 0.2803886
000060 d1 15 29 3f 29 96 d3 bf db 6b b1 bf 94 0a 76 3e
       0.66048914 -1.65302 -1.386104 0.24027473
000070 aa b2 8e be c2 2c 57 3e d9 27 7e be 0f 76 40 bf
       -0.27870685 0.21013168 -0.24819888 -0.75180143
000080 ba 92 a2 3d 58 a8 2e be 9f 31 3e 3f ea 64 de be
       0.07938142 -0.17056406 0.74294466 -0.43436366
000090 a5 37 f0 be 6d 95 75 bf 89 31 85 3e fc a3 35 3e
       -0.46917453 -0.9593113 0.26014355 0.17738336
0000a0 f2 ec d8 3e f7 cc 77 bf 7f 44 50 bf c0 0a 19 bf
       0.42368275 -0.96797127 -0.81354517 -0.5978203
0000b0 dd 68 bc 3e 5d 6c 10 3e 09 7b 21 3f 8b d6 5a 3e
       0.36798754 0.14103837 0.6307836 0.21370904
0000c0 cc 04 c1 be 1c 38 78 3d 53 3d 89 bf 7d c2 3f 3f
       -0.37698972 0.060600385 -1.072184 0.7490614
0000d0 fc ef 76 be 7a 2a bf bd ab d8 c9 3c 11 3c de 3c
       -0.24114984 -0.09334274 0.024639448 0.027128251
0000e0 75 bc b0 3d 6a 7a c0 be de fd 1d 3f e5 19 7f 3e
       0.08629695 -0.37593395 0.61715496 0.24912222
0000f0 68 0a 86 be 0e 57 9a be 8e 3d 2b 3f 62 c9 fa 3e
       -0.26179814 -0.30144542 0.668908 0.48981768
000100 65 9d 48 bf 91 83 c0 3d 1d 3a 27 3f aa 2f c5 3e
       -0.78365165 0.09400094 0.6532305 0.38512927
000110 99 6a 1b bf bb 42 8d bf 2b 72 31 3f 93 b2 22 3e
       -0.6070953 -1.103599 0.6931483 0.15888433
000120 6e e0 24 3f 25 51 f7 be a1 d8 8f bf 2b a9 37 bf
       0.6440495 -0.48304096 -1.1237985 -0.71742505
000130 e0 7a 92 3e 02 a4 1a 3f 8c 05 f3 3d 51 4c 16 be
       0.2860937 0.60406506 0.11866292 -0.1467755

StatefulPartitionedCall/sequential/dense_1/BiasAdd/ReadVariableOp:0 f4 [10]
000000 31 6c 6c bf ee bd 8f 3e a2 a9 08 3f 8a 75 24 bf
       -0.92352587 0.28074592 0.5338384 -0.6424185
000010 6e cc d4 3e 68 82 ae 3f 9f 61 e7 be 47 ab 43 3f
       0.41562217 1.3633547 -0.45191666 0.76433223
000020 1d 1e 80 bf 3c f5 81 be
       -1.000919 -0.2538241

StatefulPartitionedCall/sequential/dense/MatMul/ReadVariableOp:0 f4 [784, 8]
000000 90 57 06 3d 86 f7 2c bd 50 4c 9e 3d 9c b4 8d 3c
       0.03279835 -0.042228244 0.07729399 0.017298035
000010 b8 ba 4f 3d 21 48 3e bd 94 5c a8 3c f8 cd 6f 3c
       0.05071518 -0.046455506 0.020551957 0.014636509
000020 18 cd 16 3d f1 c2 4d bd d0 3d b3 3b a4 95 87 bd
       0.036816686 -0.05023474 0.005470015 -0.066203386
000030 e0 52 75 bc 70 1d 31 3d c0 85 90 3a 04 2f 78 3d
       -0.014973372 0.043240964 0.0011026189 0.060591713
000040 48 80 57 3d 2c a7 7d 3d 48 19 32 bc 64 f2 89 3c
       0.052612573 0.061927006 -0.010870285 0.016839214
000050 3f c8 77 bd 24 ea a6 bc 7e e3 9c bd c8 a9 32 3d
       -0.060493704 -0.020375319 -0.07660578 0.043618947
000060 70 93 76 3d d0 23 a8 3b 00 59 b8 bb 9c 61 6a bd
       0.0601992 0.0051312223 -0.005625844 -0.057221994
000070 ca 64 9a bd c8 c0 61 bd 13 12 61 bd 1d b1 10 bd
       -0.07538755 -0.05511549 -0.054948878 -0.03532516
000080 fd 39 ad bd 8c 92 d2 3c 64 03 4d 3d 4c ba d1 3c
       -0.08458326 0.025704645 0.05005206 0.025601529
000090 50 9c f7 3b 3b 23 40 bd 5c 4e 64 3d 70 bd fa 3c
       0.0075564757 -0.0469086 0.05573879 0.030607909
0000a0 b6 57 af 3d a4 e9 60 3d 4e f4 9a bd 10 de ed 3c
       0.085616514 0.054910317 -0.07566129 0.029036552
0000b0 88 5d 6e bc a0 0f c6 3b 58 06 72 bc 44 09 92 3d
       -0.014548667 0.006044343 -0.01477202 0.071306735
0000c0 70 ac 93 bb 64 94 7d 3d e8 50 a9 bc a0 15 6f 3d
       -0.00450664 0.061909094 -0.020668462 0.058370233
0000d0 55 b5 96 bd dc ac 55 bd 64 4c 25 3d e8 38 cd 3c
       -0.07358805 -0.052166805 0.040356055 0.02505155
0000e0 ec 4f 37 3d cd a9 25 bd ce bb a4 bd 98 c3 95 3d
       0.044753954 -0.040445138 -0.080436334 0.07312697
0000f0 43 61 45 bd 9a 89 8d bd f2 5b 08 bd 92 f9 8a 3d
       -0.04818846 -0.06911011 -0.03329081 0.06785883
000100 bc 84 2f 3d a4 2b 26 3d 6c cb 43 3d 20 f4 b8 3c
       0.042851195 0.040568963 0.04780142 0.022577345
000110 f0 da 61 3d 78 95 20 bc 20 15 b9 bb 0c 95 80 bc
       0.055140436 -0.009801261 -0.0056482702 -0.015696071
000120 88 2d 4f 3c 00 bc 70 3b 48 75 5d 3d 24 b2 4c bd
       0.012645133 0.003673315 0.054066926 -0.049974576
000130 4d 14 55 bd 62 3d d6 bc 53 03 19 bd e0 c5 61 3d
       -0.052021313 -0.026152316 -0.037356686 0.05512035
000140 b2 27 a4 3d 78 cc 7e 3c 76 36 0a bd aa 35 de bc
       0.08015384 0.015551679 -0.033743344 -0.027125198
000150 0f 3c 0c bd 4c a1 69 bd 2e 13 15 3d bf f0 4d bd
       -0.034236964 -0.05703859 0.036395244 -0.05027842
000160 da 34 72 bd 70 30 a4 3c 58 05 c1 bc 28 a3 24 bc
       -0.059132434 0.020042628 -0.023562118 -0.010048665
000170 b6 fb 19 bd 5e 8d 89 3d 07 03 1b bd 1e fe 87 bd
       -0.037593566 0.06716417 -0.037844684 -0.06640266
000180 13 2e 31 3d a7 84 1f 3e d2 1f e6 bc e5 5d 87 be
       0.04325683 0.15577947 -0.028091345 -0.26438823
000190 5f ff 3e 3e 03 c3 31 3e 3b 53 8c 3e 54 a1 4e 3e
       0.18652104 0.17359547 0.2740725 0.2017873
0001a0 e1 be e4 bd 3e cb 29 3e b3 12 3e 3e 80 f4 04 bd
       -0.1116922 0.16581437 0.1856182 -0.032459736
0001b0 8d 10 b4 3c 8a f7 cd 3d 07 73 6b 3e c3 c2 38 3e
       0.021980548 0.1005698 0.22993098 0.18043046
0001c0 66 f2 ff bc a4 33 35 3e f0 78 e2 3d 9d 6d 0f 3e
       -0.031243514 0.1769548 0.11058223 0.14006658
0001d0 73 8a 84 be 64 50 04 3d b2 56 7d bd 19 8e 7f 3e
       -0.25886878 0.03230323 -0.061850257 0.2495655
0001e0 d8 a1 98 bd 8a ed 24 3e 59 1b 5f 3e 40 c0 50 3d
       -0.07452744 0.16106239 0.21787776 0.050964594
0001f0 23 08 3d be 76 0b 59 3d cc 52 ec 3c 8a d2 12 3d
       -0.18460135 0.052989446 0.028848074 0.035845317
000200 cc 2d 9c bd 00 e8 96 ba 76 8c 9f 3d 88 a9 cd 3c
       -0.076259226 -0.0011513233 0.07790463 0.025105253
000210 90 4a 80 bb 4c dd 6c bd 5f da 9b bd ef e8 54 bd
       -0.0039151385 -0.057828233 -0.0761001 -0.051979955
000220 c3 3e ab bd 50 d4 d6 bc 5c ac 7b bd 17 1c 29 bd
       -0.0836158 -0.026224285 -0.06144367 -0.041286554
000230 a0 0a a2 3c 18 1e 3d 3d 06 fa ab bd 7b a5 46 bd
       0.019780457 0.046171278 -0.083972976 -0.04849766
000240 60 48 dc 3c 0c 3e 09 3d da dc a1 3d 22 4c 9a 3d
       0.02688998 0.033506438 0.07903452 0.075340524
000250 ea b5 de bc 38 f1 ba 3c 8c 2d 43 3d 21 d2 12 bd
       -0.027186353 0.0228201 0.04765086 -0.035844926
000260 f6 3c f8 bc d0 85 95 3c 1e dc a8 bd 6d e6 43 bd
       -0.030302506 0.018252283 -0.08245109 -0.047827173
000270 c0 a6 b4 3a 1e 09 96 3d 50 a1 d5 bb 38 ba 9d 3d
       0.0013782606 0.07325958 -0.006519474 0.07701534
000280 e5 98 9b bd e0 e5 9d bb 9c 7b 88 3d d0 c6 06 bc
       -0.07597522 -0.004818663 0.066642016 -0.0082261115
000290 80 99 8b 3a cf fa 95 bd 90 9b d3 bb 10 5a a2 3d
       0.0010650605 -0.073232286 -0.0064577535 0.07927334
0002a0 80 c3 00 3a 08 a9 29 3d b8 1a 94 3c 58 41 a3 3c
       0.0004911944 0.041420966 0.018079147 0.01992862
0002b0 a8 eb 44 3c 74 17 ef 3c 46 e4 8e 3d 20 d7 ec 3c
       0.012019075 0.029185988 0.069771335 0.028911173
0002c0 08 43 4f 3c 3c a8 6a 3d 08 9a 11 3d 6c 78 4f 3d
       0.012650259 0.057289347 0.035547286 0.050651953
0002d0 06 2b 57 bd 94 29 8f bc 3a 68 80 3d ec 52 8e bd
       -0.052531265 -0.01747588 0.0626988 -0.0694941
0002e0 60 83 08 3d 14 e8 df 3c 13 a2 51 bd 77 4d 9a bd
       0.033328414 0.027332343 -0.051179957 -0.075343065
0002f0 bc 6f eb bc c4 54 9f 3d 70 d9 bb bc ac 90 c4 bc
       -0.028739803 0.0777984 -0.02293083 -0.023994766
000300 80 9d 20 bc ee 9a d5 bc 3c f1 75 3d 94 73 69 bd
       -0.009803176 -0.026074853 0.060044512 -0.05699499
000310 c1 4f ae bd a0 f8 00 3b b4 e5 a9 3d 5c 42 11 3d
       -0.085113056 0.0019679442 0.082957655 0.035463676
000320 88 f7 64 3d 9c 4d 62 3d 9c 12 15 3d 40 5c 01 bd
       0.055900127 0.055249795 0.0363947 -0.031582117
000330 14 cc 27 3d 58 c9 5c 3d f8 4e 13 3c 90 43 70 3c
       0.04096611 0.053902954 0.008990996 0.014664546
000340 df 3f 06 bd 1d 6b 5a bd f8 c2 75 3d de f2 00 bd
       -0.032775756 -0.053324807 0.06000039 -0.031481616
000350 e3 31 a3 bd 55 8b 9c bd b5 d8 39 bd 28 73 86 3d
       -0.079684995 -0.07643763 -0.045372684 0.06564933
000360 3d ff af bd 0c b3 e0 bc f2 f1 90 3d 2c c6 29 3d
       -0.08593605 -0.027429126 0.070773974 0.041448757
000370 a3 a3 06 bd 0e e9 a1 bd 19 64 85 bd e5 da a7 bd
       -0.0328709 -0.0790578 -0.06513233 -0.08196048
000380 7c 88 a4 bc 50 08 04 3c 80 ee 92 bb b4 13 43 3d
       -0.020084612 0.0080586225 -0.004483998 0.047626212
000390 d5 00 5f bd b2 ae 97 3d 1a 24 9b bd 4f 53 a6 bd
       -0.054444153 0.07406367 -0.07575245 -0.081213586
0003a0 5c f6 b7 3c d4 0e 56 3d ec bc 2d 3d a6 08 01 3d
       0.02245634 0.052260235 0.042416498 0.03150239
0003b0 3e 56 a8 bd 3e f8 8a bd 9f be 92 bd 24 72 9b 3d
       -0.082195744 -0.0678563 -0.07165264 0.0759013
0003c0 ef 72 ad bd ac de 7c bd d0 3d a3 bd 21 80 a8 bd
       -0.084691875 -0.061735794 -0.07970774 -0.08227564
0003d0 48 fe 8b bc c0 88 b2 3c 30 13 3e bd a2 15 ae 3d
       -0.017089024 0.021793723 -0.046405017 0.0850022
0003e0 fc 45 ce 3c cc 66 b2 bc 46 9b 92 bd 8e 5f a5 bd
       0.025179856 -0.021777533 -0.07158522 -0.08074866
0003f0 90 5e c3 bc 0a 3a ab bd e2 d3 83 bd e0 57 30 bb
       -0.023848802 -0.083606794 -0.06436898 -0.0026907846

StatefulPartitionedCall/sequential/dense/BiasAdd/ReadVariableOp:0 f4 [8]
000000 0b 44 86 3d 4c c0 23 3e 10 f4 8a 3e 2b b3 05 bf
       0.06555947 0.15991324 0.2713933 -0.52226514
000010 63 4b 26 3f 4f b2 8e bd f2 06 b7 bc ff 9a 86 be
       0.6495878 -0.069676034 -0.022342179 -0.26290128
